planner_zoo/model_for_mfrl.pth (torch, 46415 bytes, 6 tensors)

fc1.weight f4 [64, 70]
00000000: 00b9 9ebd 9046 bbbb 2fa3 8c3d 1e85 423d
00000010: 36fe e5bd b442 d0bc b58a da3d 6ba1 e13d
00000020: 087f 203c 00d0 36b9 50aa e33b 08a6 73bc
00000030: 8b98 923d d132 e93d bb5a ccbd c6bc e8bd
00000040: 7771 883d 14ce b1bd 70d8 44bd debe 523d
00000050: 009c afb9 1844 8fbc 0a9a dcbd e131 d43d
00000060: f64a 6a3d 10de acbc 17d3 a73d ece1 8fbc
00000070: e4da 86bc a010 593b 51b4 983d c0e8 eeba
00000080: b7a9 de3d 947f 903c 688d 02bc 358b a73d
00000090: 2b17 b23d 4639 183d bb07 d03d c098 85bd
000000a0: 4044 4bbc 4371 d43d 9cac a8bd 2ae3 babd
000000b0: a7a8 f3bd 55c6 c13d c3bf af3d 10bb be3b
000000c0: 4ed6 3b3d b886 85bd ac50 1cbd 05fc ae3d
000000d0: d8b1 743c 3ac6 733d 8027 7e3a 46ec 8ebd
000000e0: 0679 e2bd ac4a 2dbd 30f6 dc3b a05e edbd
000000f0: d831 15bd 926f a2bd 00a7 c239 8436 32bd
00000100: 8f03 86bd d6c5 61bd c5df eb3d 0523 a03d
00000110: 798b dfbd 42c9 0a3d c325 c7bd 1e5d c2bd
00000120: 3535 ac3e 9960 003f 7599 4b40 bd79 e03d
00000130: 47d2 9e3c d9ff c3bd f6c3 ae3d 05b1 c2bd
00000140: 541e c1bc 12f2 613d 30fa ecbd 8b79 babd
00000150: fdcf c63d 8801 6a3d 06db 383d 403e 0bbb
00000160: a49c 993c 794e 03bd bb49 823d 7304 843d
00000170: 7c97 88bd 4138 813d a85d a2bc b5e9 75bd
00000180: 18ea 4c3c b4ba c0bd 77a3 cf3d 7263 33bd
00000190: a439 c1bd e9c1 973d f473 06bd e0a0 19bc
000001a0: 9210 4e3d 48b2 a2bd 4334 8fbd 5cb9 dcbc
000001b0: c5a7 993d ece2 aabd c7c6 ea3d 38da 043c
000001c0: fc40 c9bc b0f0 d0bc dc13 c73c 7d3e bf3d
000001d0: 9eb0 b7bd 0f3e e23d de0f 29bd af5a a73d
000001e0: d035 c3bb 77b3 f13d 156d be3d 2055 8dbd
000001f0: 3b40 d73d 3e86 453d 40db 33bc aaf4 72bd
00000200: d322 b1bd 77b9 d2bd 95aa 79bd 5e7c 4d3d
00000210: 3fac 6cbd 8c72 62bd eb94 b73d 7c9d f13c
00000220: eae4 523d ae92 4e3d e056 9bbd 07df 71bd
00000230: 80e3 573a 4068 c7ba e405 a93c df21 ed3d
00000240: 5f77 c13d 70c7 d1bd b00b 82bc 08b5 ebbc
00000250: 3824 f5bc e539 afbd 4ccf 963c 1f00 a13d
00000260: de08 26bd 00fd fbbb a44e e53c 52ec 39bd
00000270: 07a3 7bbd 70b9 d7bb 8c33 b33c 9d77 e1bd
00000280: 1ad5 f2bd f0ba 45bc fe1e 89bd 4022 26bd
00000290: 377d ee3d 71ec a63d 38fa 51bc 28e4 e3bd
000002a0: baaf 86bd a540 ad3d 424b 8cbd 8929 e5bd
000002b0: d1a8 c93d bb99 a6bd 00c4 5f3b 54a1 e03c
000002c0: fa87 78bd b60d 193d 9c2e a8bd 41a7 d93d
000002d0: 4009 4e3b a008 31bc 0ee3 8ebd e872 acbd
000002e0: f851 193c 54c5 84bd b2bd 2e3d 4114 b43d
000002f0: 6e4b 92bd 2fee ba3d 104a b1bd 7e52 aebd
00000300: a5cb 873d eea0 4d3d 72fd 553d b065 bebb
00000310: 28a6 ecbd 1433 c63c 360d 3b3d 68c5 363c
00000320: c0b0 e7bc 7cd0 5abd e796 cb3d 6f9b c33d
00000330: f9d8 d53d cdb6 b6bd 001e 44bb 1722 e9bd
00000340: 7c00 acbd 021f cebd d057 e43b 65fd d4bc
00000350: 1b3d 9e3e 2405 ef3e cee3 6b40 323c e83d
00000360: 5db2 8e3d 1d93 93bd 2507 a33d dacb 6a3d
00000370: 2300 b63d 5d19 aa3d a672 1abc b1ce 2a3d
00000380: c1a0 4fbd aa4c e13d d1a0 c73d fb1d db3d
00000390: c38a f2bd 40cc 90bd b6f9 903d 6c5f cabc
000003a0: a69e 4c3d 3c98 9cbd ff10 cc3d 53c4 ab3d
000003b0: 4ef9 4f3d 5525 853d b606 403d 0a7c c9bd
000003c0: 0590 86bd dae7 5c3d 447e 913c 6559 d23d
000003d0: 74d0 98bd 4cdf 80bc 0a91 003d 6253 7e3d
000003e0: bcc0 ca3c 1701 c63d c2d3 6b3d 4442 42bd
000003f0: 74ac 873c 33dc c83d 35a4 a93d 1a09 6f3d
-0.0775013 -0.005715199 0.06867062 0.04749023 -0.112301275 -0.025422432 0.106709875 0.11017116
0.009795912 -0.00017434359 0.006947793 -0.014871128 0.071580015 0.113866456 -0.09978243 -0.11364131
0.06662267 -0.086818844 -0.048057973 0.051451556 -0.0003349483 -0.017488524 -0.10771568 0.10361076
0.057200395 -0.021101981 0.08194559 -0.017563783 -0.016461797 0.0033121482 0.074562676 -0.0018227324
0.10872214 0.017638959 -0.007968284 0.081808485 0.08695825 0.037163995 0.101577245 -0.065232754
-0.012406409 0.103731655 -0.082360476 -0.09125359 -0.11897402 0.09461657 0.085814975 0.0058206394
0.045858674 -0.06519836 -0.038162872 0.08544163 0.014934979 0.059515215 0.0009695217 -0.06978659
-0.1105824 -0.04230754 0.006743215 -0.11590314 -0.036424488 -0.079314366 0.00037126988 -0.04350902
-0.065436475 -0.05512031 0.1151729 0.078191794 -0.10915274 0.03388334 -0.09723999 -0.09490417
0.33634344 0.50147396 3.1812413 0.1096072 0.019387377 -0.095702834 0.0853347 -0.0950642
-0.023574032 0.055162497 -0.11571157 -0.09105214 0.09707639 0.057130367 0.045130752 -0.002124682
0.01875145 -0.03205726 0.06361719 0.06446161 -0.06669518 0.06309558 -0.01982005 -0.060037334
0.012506984 -0.09410611 0.101386 -0.04379601 -0.09434822 0.07410032 -0.032825425 -0.0093767345
0.05030877 -0.07944161 -0.0699239 -0.026943855 0.075027026 -0.08344063 0.11463695 0.008108668
-0.02456712 -0.025505394 0.024301462 0.093380906 -0.08969234 0.11046993 -0.041274898 0.081715934
-0.0059573427 0.11801808 0.092981495 -0.06901002 0.10510298 0.048223726 -0.010977566 -0.05931536
-0.0864922 -0.10289281 -0.060953695 0.050167434 -0.057781454 -0.05528502 0.08963951 0.02949404
0.05148784 0.050432853 -0.075849295 -0.059050586 0.0008235499 -0.0015213564 0.020632692 0.11578726
0.09446596 -0.10243118 -0.015874714 -0.028772846 -0.029924497 -0.085559644 0.018409394 0.07861351
-0.0405358 -0.007690072 0.0279916 -0.04539139 -0.061434772 -0.006583385 0.021875165 -0.110091425
-0.11857052 -0.012068495 -0.066953644 -0.040560007 0.116449766 0.08150566 -0.012816004 -0.11127502
-0.06576486 0.084595956 -0.06850292 -0.11189563 0.09846652 -0.081347905 0.0034143925 0.027420677
-0.060676552 0.03736659 -0.08212015 0.10627604 0.003143862 -0.010805279 -0.06976901 -0.08420354
0.009357922 -0.0648295 0.042661376 0.087929256 -0.07143293 0.09127461 -0.086567044 -0.08511828
0.06630639 0.050202303 0.052243657 -0.005810462 -0.11555129 0.024194278 0.045666896 0.011155464
-0.028282523 -0.053421482 0.09940892 0.09551131 0.10441775 -0.08921585 -0.0029925108 -0.11383455
-0.0839853 -0.10064508 0.006968476 -0.025999734 0.30905995 0.4668361 3.685779 0.11339606
0.06967614 -0.07205794 0.07960347 0.057323314 0.08886745 0.08305619 -0.009426748 0.041701023
-0.050690416 0.11000951 0.0974747 0.10699078 -0.11842873 -0.070702076 0.070788786 -0.024703704
0.049955986 -0.07646224 0.09964179 0.08387055 0.050774865 0.06501261 0.0468814 -0.09838112
-0.06570438 0.05393205 0.017760403 0.10270957 -0.07461634 -0.015731476 0.03138832 0.06209124
0.024750106 0.096681766 0.057574995 -0.047426477 0.016561724 0.09807625 0.08283273 0.05835829

fc1.bias f4 [64]
00000000: f494 eebc 719d ba3b 1413 d3bd 6f77 a1bd
00000010: 4161 e3bd d51f b3bd 8597 1dbe 29ca e33d
00000020: 8c2b cebd 4fd9 a9bc aca3 733c a8cc 8a3d
00000030: fad1 95bd 825c 19bb ba0b 353e 2664 a53c
00000040: 586e 153d 4401 89bd ee43 c2bd 99ae bd3c
00000050: f7ce e33d 1ec6 0cbe 4bdb 95bd 73b2 c8bd
00000060: 8610 c6bc e65c 1e3d bb9c afbc 7201 743d
00000070: 03fc 733d 9b05 90bc 0d05 98bb f216 14bd
00000080: 482c b93c 0a63 b03d ca94 c5bd bde1 983d
00000090: 1e6c a8bc 2bd0 88bd 5de0 b83c 15a5 a2bd
000000a0: b43e b6bc a645 e6bd 6701 3e3d ad3a c0bd
000000b0: 14d6 96bd 6242 4e3d 4914 fc3c 76a7 f8bc
000000c0: 106b ebbd 064a 3fbd a188 c7bd 4447 eabc
000000d0: 80d4 00be 1b5b 60bc 777a 82bb e0f5 d0bd
000000e0: 7a9d a6bd bc9d f5bc 5eda dbbd 79c0 a1bc
000000f0: 9a7b c7bd d5da ab3d 6170 10bd c21e 9bbb
-0.02912376 0.005695038 -0.10306373 -0.07884108 -0.11102534 -0.08746306 -0.15389831 0.11122543
-0.100669 -0.020733504 0.014870565 0.06777316 -0.073154405 -0.0023401086 0.17680255 0.020189356
0.036482185 -0.066896945 -0.09485613 0.023154544 0.1112346 -0.1374745 -0.073172174 -0.097996615
-0.0241778 0.038662814 -0.02143704 0.05957169 0.05956651 -0.017580798 -0.004639274 -0.036154695
0.022604123 0.0861264 -0.0964752 0.07464931 -0.020559367 -0.0668033 0.022567922 -0.07941643
-0.022246696 -0.11243753 0.046388056 -0.093861915 -0.07365051 0.050356276 0.030771391 -0.03035329
-0.1149503 -0.046701454 -0.09742857 -0.028598435 -0.12581062 -0.013693596 -0.003981884 -0.10203147
-0.08135505 -0.02998244 -0.107350096 -0.019745098 -0.09740372 0.08391348 -0.035263423 -0.004733891

fc2.weight f4 [64, 64]
00000000: c6e6 d8bd 3472 16bd b08f 1e3d e4fe 673d
00000010: e85c 5cbd ae42 af3d e402 70bd 4243 b33d
00000020: d875 863c 60ba c2b8 c817 a3bd 2368 b1bd
00000030: 6ed5 f8bd b960 a4bc 6f3e fcbc 8ab3 7ebd
00000040: 60ba 94bd 0e10 e03d d6b8 a13d 1ba1 c4bd
00000050: 80fc c9ba a75d ec3d 15f1 cd3d 8282 d63d
00000060: 740a ba3d 945d bcbd 870c 803c c4bd 70bd
00000070: 1763 923d 68c6 cdbd 17f5 aabd 78c5 8b3c
00000080: a298 1cbd 7b93 edbd 1e15 95bd 60fd 44bd
00000090: d37d bb3d bd48 533d bec6 b43c bad7 adbd
000000a0: 1602 c13d 782e 2cbd 30ef a6bc ce6e cd3c
000000b0: 52e9 873d 005b 24bd 4085 4dbb 105a e83c
000000c0: b790 b2bd e09d f9bc 5868 89bd de4d 7abd
000000d0: 3c8c ef3d d01c c13d fe54 993d 1b23 1a3d
000000e0: 44e4 463d 90b1 993d d6b7 b43d 4848 6bbd
000000f0: 2007 89bc 9817 b93c f636 c83d 7411 f1bd
00000100: a89f 88bd 84eb a8bd 509d dd3d df3e 353d
00000110: 406f bfbc 9cd4 28bd c0c2 603d 506b 343c
00000120: d42c 09bd b090 22bc 5436 aabd 2ee1 4dbd
00000130: 08cd 18bd 107b 05bd d9df 353d 8a03 f43c
00000140: 7cca c4bd 74e7 883d cfda f8bc 261c 593d
00000150: 3077 2a3c 0f08 55bd bbbb 8d3d a6cd a53d
00000160: 0ce4 ad3d 8dca f7bd c4ac f4bd 0ed7 f93d
00000170: 27b9 cb3d cad2 a3bc 527c 533d c0fa 3d3d
00000180: ff7d 85bd 1ba6 8c3d 65bc f3bd e01a 02be
00000190: 0422 06be bbb4 823d 64ae b13a b8a5 833c
000001a0: c0b1 e5bc fe74 593b a718 163d eb07 4d3d
000001b0: 80f9 fc3d 48c3 993d d013 c4bd 5a55 e83c
000001c0: 4d5f 643d 789c afbc 0cfe 4e3d 3d4b 283c
000001d0: cc10 263d 1ba1 8ebd bf9c c63d 6923 0cbe
000001e0: fcd4 99bd e566 793d 272b bfbd a8e7 a83d
000001f0: 30b0 bfbc f09e 5c3d 7b98 893d 32f2 b33d
00000200: 50ea a0bc e223 923d 5c74 993d 1368 343e
00000210: 1de6 7fbe 4753 dd3d 123c 993c c094 863c
00000220: be99 b83d d35b e53c a424 fd3d 9784 533e
00000230: 7cae c1bd b90e ac3d 20a7 543e c573 1f3f
00000240: c5eb 3e3f e050 b3bb b059 f53d c3cd e93d
00000250: 2406 85bd 4e6e 483f 9665 7a3c 549c 16bd
00000260: 608d 89bd fe7d c93b 10bd e8be 0071 9cbb
00000270: 3c97 153e 37e7 123b 94c9 413e 90a6 1e3c
00000280: 6027 243e b4fc aa3e c728 7b3d 430f 8b3d
00000290: 56f8 913c b0d9 473f 956b 0b3e 040a 3dbd
000002a0: 7061 553d 796e f1bc c0cf a63c 9606 fd3d
000002b0: 2062 10bc 6a33 9ebd 2610 c33c 072e 1f3f
000002c0: 802e 043e 3e82 b9bd 4be9 d2be 54a5 1b3e
000002d0: 9d52 a33d 7c90 f03d 65ff 463e e927 02bd
000002e0: 6620 df3d 83d4 71bd 05c6 9b3d 23b1 0c3e
000002f0: 6475 67bd 40a3 8a3d bfa6 8d3e e4bd 2a3d
00000300: c815 2f3d 6c8f 2b3e 1613 9b3d 1c64 6b3c
00000310: 3e09 27bf 18d7 12be 5e9d 40bb 7a05 d13d
00000320: d8d1 cdbc 4130 9fbe 3857 243d 0bad bd3d
00000330: 2d0d d73c e244 043e 7680 323f a07f 78bf
00000340: def2 143f 004e 47bb cc3b 6cbd 0aba 96bd
00000350: e055 1cbc 7ea2 70bf f2d7 3a3e 8065 aeba
00000360: 95bd 15be 5c11 b6bd 979b 24bf 861b af3d
00000370: 53f1 943d 402f 093d 9c75 14bd 40b9 523b
00000380: 13e5 13bd 5681 2d3e 5a85 963d 1263 e2bc
00000390: 61ac 5c3b 7e5f 9abf be38 9cbc f43d 083d
000003a0: 106f ccbd a7be e9bd 5dc3 fabd 0b00 153e
000003b0: 0e51 cd3d 088a 963c 55d9 cd3d 7658 56bf
000003c0: a575 93bd 58e8 303d dbe5 26bf 046c 65bb
000003d0: 0faf ccbb 942f 193f 755c 4abe c9a0 013e
000003e0: 08c4 ac3d ee50 c2bd a186 37be 3659 aabc
000003f0: 9066 83bd f6be cebd 55a7 6fbe 8513 f33c
-0.105908915 -0.036730006 0.03871125 0.056639567 -0.05379954 0.0855764 -0.058596507 0.08753063
0.016413614 -9.285356e-05 -0.0796352 -0.08662441 -0.121500835 -0.020065652 -0.03079149 -0.06218294
-0.07262111 0.10940562 0.07896583 -0.09601041 -0.0015410334 0.115413 0.100557484 0.10474111
0.09084025 -0.09197536 0.015630974 -0.058774725 0.07147806 -0.100476086 -0.083475284 0.017061934
-0.0382315 -0.11600395 -0.072794184 -0.0480932 0.091548584 0.05158304 0.022067424 -0.08488412
0.09424226 -0.042036504 -0.020377725 0.02507725 0.06636299 -0.040125847 -0.003135994 0.028363258
-0.087190084 -0.030470788 -0.06709355 -0.061109416 0.116966695 0.09429324 0.07486914 0.037631135
0.048557535 0.075045705 0.088241264 -0.05744198 -0.01672703 0.022594258 0.09776108 -0.11770907
-0.06671077 -0.08248046 0.108210206 0.04424941 -0.023368478 -0.041218385 0.054873228 0.011011913
-0.033490017 -0.0099221915 -0.083111435 -0.050263576 -0.037304908 -0.032588065 0.04440293 0.029786844
-0.09608933 0.06684771 -0.030377774 0.05300536 0.010404393 -0.05200964 0.06920572 0.08095865
0.08490762 -0.1209918 -0.11947015 0.121992216 0.099474244 -0.019997973 0.051632233 0.046381712
-0.065181725 0.068676196 -0.11901168 -0.12705564 -0.13098913 0.06382128 0.0013556001 0.016070232
-0.02803886 0.0033181305 0.036644604 0.05005638 0.12352276 0.0750795 -0.095740914 0.028361011
0.05575495 -0.021436915 0.050535247 0.010271844 0.040543362 -0.06964322 0.09697866 -0.13685383
-0.07511327 0.060889143 -0.093344025 0.0824731 -0.023399442 0.053862512 0.067185365 0.087864295
-0.019642979 0.0713575 0.07492897 0.17617826 -0.24990125 0.108068995 0.018705402 0.016428351
0.09013699 0.027997887 0.12360504 0.20656048 -0.094571084 0.084012456 0.20766878 0.62286025
0.74578506 -0.0054722875 0.11979997 0.11416199 -0.06495312 0.7829331 0.015283009 -0.03677018
-0.06716418 0.0061490526 -0.45456743 -0.004774213 0.14608473 0.0022415647 0.18924552 0.009683266
0.16030645 0.33395922 0.061318185 0.0679002 0.017818611 0.7806654 0.13615258 -0.04615213
0.052094877 -0.029471623 0.020362735 0.12354772 -0.008812457 -0.0772465 0.023811411 0.6217961
0.12908363 -0.09058045 -0.41193613 0.15199786 0.079747416 0.11746308 0.19433363 -0.031776343
0.108948514 -0.059040558 0.076061286 0.13739447 -0.056508437 0.06769419 0.2766628 0.041685
0.04274538 0.1675393 0.07572 0.01436713 -0.6524848 -0.14339864 -0.0029390673 0.10206123
-0.025124475 -0.31091502 0.04012224 0.09261521 0.0262514 0.12916902 0.69727266 -0.9706974
0.58183086 -0.0030411482 -0.057674214 -0.07359703 -0.009541959 -0.93997943 0.18246439 -0.0013305396
-0.14623101 -0.0889003 -0.6429991 0.085501716 0.072725914 0.033492327 -0.036244974 0.0032153875
-0.036107134 0.16943869 0.073496535 -0.027635131 0.0033672082 -1.2060392 -0.019070026 0.033262208
-0.09982121 -0.11413317 -0.12244294 0.14550798 0.100252256 0.018376365 0.100512184 -0.8372873
-0.07200173 0.04319033 -0.6519448 -0.003500701 -0.0062464545 0.59838223 -0.19761832 0.12658991
0.084358275 -0.09488092 -0.1792245 -0.020794492 -0.064160466 -0.10095017 -0.23403676 0.029672394

fc2.bias f4 [64]
00000000: 6765 b7bd 9069 0cbc 9db4 ec3c 0158 dc3c
00000010: c71a cfbd 004b f2ba e092 11bc ce50 54bd
00000020: 6ffd 0bbc 20d6 d33c 09a4 aabd b7c7 a3bc
00000030: abb9 77bd 383a d43d 3664 0abc ac71 86bc
00000040: 6678 dbba a43e c53d ac62 65bd 72c1 c9bd
00000050: 9523 3fbc 8a17 d9bc b4dd 783d 10e8 c9bc
00000060: de99 903d 1f14 c73d b476 8d3d a9c3 69bc
00000070: deac ac3d 606d 96ba cfb9 913d df1c b5bd
00000080: e858 5cbb 675d 8d3d 86b4 17be 9566 3b3d
00000090: 9c38 d9bd 4e66 c6bd 6679 e1bd a7f2 01be
000000a0: ecdf 5e3d 36d3 09be 8117 ef3c ce7c 68bb
000000b0: d3eb a83c 1a90 87bd 9d9d a7bd 9e10 273d
000000c0: adcb 9b3d 24d1 443c 84f4 23be 8e2b 093e
000000d0: 09c7 bd3c e2e8 7abc f5e8 643d 806a c33b
000000e0: f306 61bc cd79 72bd 91d0 cd3d fb19 b53d
000000f0: 60ed f2bb 61ac d4bd 0756 ee3d eaa7 f3bd
-0.08954888 -0.00857009 0.028894717 0.026897432 -0.10112529 -0.0018485487 -0.008885115 -0.051834874
-0.00854431 0.025858939 -0.083320685 -0.019992692 -0.0604798 0.10362667 -0.008446744 -0.016411625
-0.0016744256 0.096310884 -0.056002304 -0.0985135 -0.011666198 -0.026500482 0.060758308 -0.024646789
0.07060598 0.09720635 0.069074064 -0.01426784 0.08431409 -0.0011476688 0.07115518 -0.08843397
-0.0033622328 0.06902581 -0.14814958 0.045752127 -0.106065005 -0.09687482 -0.11009483 -0.12690221
0.054412767 -0.13459477 0.029186012 -0.003547478 0.020620262 -0.06619282 -0.08184359 0.04078733
0.076072074 0.012012754 -0.16011244 0.13395521 0.023166196 -0.015314313 0.055886228 0.0059636235
-0.013734567 -0.05919819 0.100495465 0.08842846 -0.007413551 -0.10384441 0.11637502 -0.118972614

fc3.weight f4 [36, 64]
00000000: eaa6 d5bd e072 cabc 8bbf 853e 5162 e23e
00000010: 7e6b 7ebc 7875 bd3c 2c6a 5ebd 60c5 16bd
00000020: 0a8a 98bd b4c8 55bd 206c 943e 6e12 e23d
00000030: 003b 403d 787b 13bd fa78 fbbd e758 e43d
00000040: 71b0 5b3e 8014 043d e033 afbc 983f 053e
00000050: ff05 3cbd d135 083e 3cb2 3e3e dad2 1c3e
00000060: 5977 223e d039 743d cea9 cc3d bda8 f23d
00000070: 8dd7 0f3e 546c da3d b00e 2d3c 66b6 cebd
00000080: b264 c23d f44e 1ebd 9ec0 ef3d 6f77 773e
00000090: 3ece fbbd 6ae5 b7bd 627f 91bd d043 b4bc
000000a0: b50e b33c 4cde e7bd d888 913d 343c b93d
000000b0: daef fdbd ec8d f93d 1088 9dbc 7878 2d3d
000000c0: e817 3abd 52df 7a3d e606 873d d140 5d3e
000000d0: bb82 333e 2024 69bd 70bc 833c 402f 413d
000000e0: e5ab 923e 5868 2a3d d63f b7bd eea0 8c3d
000000f0: b08e 78bb 9034 a13d f053 3b3e 9174 993e
00000100: 25e9 c93d 5028 d2bd ced3 033e 6c0c 233e
00000110: 5486 7f3d 6043 dcbd a0f6 743c 600d b7bc
00000120: 688e efbd 549d 0d3d 466f 453e e09b c33d
00000130: 5814 ccbd c89a da3c c888 8a3c 1d26 b23e
00000140: d85f 143e 58a5 8dbd e08e 1c3c d909 6b3e
00000150: c21c 35bc 9c33 a63d 6075 833e 20cd 9e3d
00000160: c9b9 d33d 3066 0abc 6c22 aebd 8e9a 353e
00000170: d2cd 4d3e ef2c f13c 4095 ac3d 4823 46bd
00000180: 6829 b93c f2e2 8bbd 1dea a1bd f349 793e
00000190: 8810 3a3d 8081 8abb fc1f 6b3d c00d c1bb
000001a0: f0c1 5f3d 240e 673d d8d6 083d d3ee 093d
000001b0: 2ca0 72bd 70b6 59bd 08dd f13c 0eab 713e
000001c0: b08a c43c 8809 0b3e 9fe3 8a3d 57d0 183e
000001d0: 2c6e 433e 84f1 8d3d 1c49 cebd 8025 073b
000001e0: 36e4 fb3c d813 043d 069f f5bd 03ac 273d
000001f0: 5bf3 4a3e dc12 dc3d 874d 2d3d 7120 193f
00000200: 7afa 043e 603c 25bc 143c a73d f55f 693e
00000210: 8d01 4c3e 3c04 513d c02b b33b 8e4c f23d
00000220: 0c0b 23bd a451 18bd 4ae5 403e a85c 323d
00000230: cca8 4a3d 522a d43d 545e a8bd 5aa1 0d3e
00000240: 1b6e 4c3e 405b 893b 5c5c 293d d193 753e
00000250: d3b2 8d3d ac73 ed3d 8b0c 3d3d 183d b23d
00000260: af10 df3d b2e8 a5bd 04a2 6c3d d096 5a3d
00000270: 0035 893e 2a94 373d d691 b8bd 7052 b6bd
00000280: 20ac 683c 408f 633b 38d1 24bd c886 113e
00000290: 70c1 f53d 96af bebd b8c4 afbd c023 9b3c
000002a0: 5153 133e 6cc9 c23d c6df f0bd e5ea ad3d
000002b0: a81a d7bc 1472 273d 66a8 fe3d 6c34 443e
000002c0: a076 903d 39a8 be3d b805 99bd 42e0 443e
000002d0: 5f31 0e3e 6282 acbd bcfb 25bd a046 e93b
000002e0: 690c 563e cc15 20bd ecda f3bd 3857 01bd
000002f0: 9f9c 663e f231 9ebd 1262 523e 77c5 bb3e
00000300: 5271 d63d 483a d3bc 3076 c63d 54c8 b43e
00000310: e056 643e 4eb2 e83d 7012 36bc b08c eabd
00000320: 2069 16bd f004 acbd 6e3a 463e f433 e7bd
00000330: 384d c6bc 6676 9fbd e0f0 e3bd d533 e2bc
00000340: 2112 3c3e 7067 1abc 66b3 f73d d907 983d
00000350: fbbc 853d 705b 213c f145 393d 2b42 ac3d
00000360: 4398 853e 88fd eb3c 7060 d93c 1467 863e
00000370: 6f51 873e 7506 373e 5602 d5bd 7871 dcbc
00000380: b63a fcbd b60c d5bd 83b6 37bd 7eae 8e3e
00000390: e893 dc3d 5cb3 ce3d c471 083d b6de 80bd
000003a0: b44e fc3c 7431 b33c 2ce1 983d 8e22 4abd
000003b0: 580a 88bc c4c8 fd3d 085b a6bc e5e0 783e
000003c0: eeca f9bd 4e24 793d da74 913d f414 033e
000003d0: 29cc bb3d 1058 83bd 2c9d 013d 3aa2 ef3d
000003e0: 0b28 8c3e 348b a6bd a680 d83d 7cb5 7a3d
000003f0: f74a fc3d 2886 343d 1752 e53d ccc2 ba3e
-0.10432227 -0.02471298 0.26122698 0.44215634 -0.015528558 0.023127303 -0.054300472 -0.036809325
-0.07448204 -0.05219336 0.28988743 0.110386714 0.046931267 -0.03600642 -0.12278934 0.11149769
0.21454026 0.032246113 -0.02138704 0.1301254 -0.045904156 0.1330178 0.18622679 0.15314808
0.1586584 0.059625447 0.09993325 0.118485905 0.1404707 0.10665193 0.010562584 -0.100933835
0.09491862 -0.038649514 0.11706661 0.24166654 -0.12295197 -0.08979304 -0.071043745 -0.022004992
0.021857599 -0.11321697 0.07106179 0.09044686 -0.12399264 0.121852726 -0.019229919 0.042351216
-0.045432955 0.06124813 0.06593113 0.21606757 0.17530338 -0.056919217 0.016081065 0.0471642
0.2864677 0.041603416 -0.089477226 0.068666324 -0.0037926845 0.078713536 0.18293738 0.29971746
0.09858922 -0.10261595 0.12873766 0.15922707 0.062383965 -0.10755038 0.014951378 -0.022345245
-0.11697084 0.034573868 0.19280729 0.09551215 -0.09964818 0.026685134 0.016910926 0.34794703
0.14489686 -0.069163024 0.009555548 0.22952975 -0.01105422 0.081153125 0.25675488 0.07753968
0.1033817 -0.008447215 -0.08502659 0.17734739 0.20098045 0.029440371 0.08426905 -0.04837349
0.022602752 -0.06830396 -0.07905982 0.24344616 0.04542592 -0.0042268634 0.05740355 -0.0058915317
0.054628313 0.05640997 0.033408016 0.033675026 -0.059234783 -0.0531525 0.029524341 0.23600408
0.023991913 0.13577855 0.067816965 0.14923225 0.19084996 0.06930831 -0.10072538 0.0020621717
0.030748468 0.032245487 -0.11993222 0.040935528 0.19819395 0.10745785 0.042310264 0.59815127
0.12986174 -0.010085195 0.08165756 0.22790511 0.19922467 0.05102943 0.005467862 0.11831008
-0.039805457 -0.037187234 0.18837467 0.043545395 0.049477383 0.103596345 -0.08221117 0.13831082
0.19963877 0.004191786 0.041347846 0.23982169 0.06918874 0.11594328 0.04615454 0.08703059
0.10891854 -0.08101024 0.057771698 0.053366482 0.26798248 0.044819035 -0.09012191 -0.089024425
0.014201194 0.0034722835 -0.04023859 0.14211571 0.11999786 -0.09310834 -0.08582443 0.018937945
0.14387251 0.095110744 -0.117614314 0.08492068 -0.026257828 0.040880278 0.12434463 0.19160622
0.07053876 0.0930943 -0.07471794 0.19226173 0.13886021 -0.08423306 -0.040523276 0.007119015
0.20903172 -0.039083287 -0.119069904 -0.03157732 0.22520684 -0.0772437 0.20545223 0.3667409
0.10470833 -0.025784627 0.09690511 0.35309088 0.22298765 0.11362134 -0.011112794 -0.11452615
-0.03672135 -0.08399379 0.19358227 -0.11289206 -0.024206743 -0.077862546 -0.11129928 -0.027612606
0.1836629 -0.0094240755 0.120947644 0.07423372 0.06530186 0.009848461 0.045232717 0.08411058
0.2609273 0.028807417 0.026535243 0.26250517 0.26429316 0.17873557 -0.10400836 -0.026909575
-0.12315886 -0.10402815 -0.04485179 0.27867502 0.107703984 0.10092804 0.03331162 -0.06292479
0.030799247 0.021874167 0.07464823 -0.04934936 -0.016606495 0.12391809 -0.020307079 0.2430454
-0.12196909 0.06082564 0.07102366 0.12800962 0.091698 -0.06413281 0.03164403 0.11700864
0.273743 -0.0813202 0.10571413 0.061208233 0.12318986 0.044073254 0.11197298 0.36476743

fc3.bias f4 [36]
00000000: 5fe8 4e3d 72a7 12be 57fc 883e b1ae 3f3c
00000010: 4752 183e 7e20 653e 09e3 3e3d 45fb 643e
00000020: 9863 113e 7742 8e3c 4913 333e d27c 093e
00000030: 5fba 253e 623f 6c3d 5c28 003d bdd7 2ebc
00000040: e84b 123e d8b2 853e 6c40 8e3e 125c f93d
00000050: c1fa 0f3e 3db7 693e 2e9c f53d 3189 9b3d
00000060: ccbc 963e 5487 493e 0568 383e a30b 0e3d
00000070: 1552 943c 366c 043d 7b51 73bd 337b aa3e
00000080: a57c 843e 70ef 4e3e b6e8 133e eb79 aa3d
0.050514575 -0.14321688 0.2675502 0.0116993645 0.14875136 0.22375676 0.046603236 0.22361477
0.14198148 0.017365677 0.17487825 0.13426521 0.16184376 0.057677634 0.03128849 -0.010671553
0.14286768 0.2611301 0.27783525 0.12175764 0.14060499 0.22823806 0.119926795 0.075945266
0.29440916 0.1968053 0.1800843 0.034679066 0.018105546 0.03232976 -0.059403878 0.3329712
0.25876346 0.20208526 0.14444241 0.08324035
