planner_zoo/model_for_mfrl_gamma0.98.pth (torch, 46415 bytes, 6 tensors)

fc1.weight f4 [64, 70]
000000 16 44 69 3e e5 c4 5d be f0 67 d7 be 07 e5 8d be
       0.22779879 -0.2165714 -0.42071486 -0.27713796
000010 55 82 dc 3f 6b b0 9c 3e 38 93 7d 3e ce 39 19 3e
       1.7227274 0.30603346 0.24763191 0.14963457
000020 fc b4 1c 3e 3c b4 e1 3c e5 cc e7 3d b9 5d e3 bd
       0.15303415 0.027551763 0.113183774 -0.111018606
000030 68 41 88 3e 4d cb 8f 3e cc 7b 7f 3e 01 a4 8c 3e
       0.266124 0.28084794 0.24949569 0.27468875
000040 72 2c 12 3d ba a8 d5 bd c8 dd cd bc 7f 05 68 3e
       0.035686918 -0.10432573 -0.025130168 0.22658347
000050 9c bc 0c 3e 89 08 d0 3d f9 09 e7 3d d8 f2 c3 bc
       0.13743824 0.10157878 0.11281199 -0.023919508
000060 e6 18 5d 3d 8a 0c 24 3d c8 de c5 bd 68 09 4a 3c
       0.053978823 0.04005102 -0.09661633 0.012331344
000070 d6 9f 96 bd 4f ae 8f bd e0 f7 1d bd f0 ce cf bb
       -0.07354705 -0.070156686 -0.03856647 -0.0063418075
000080 cf 9f a1 3d 93 2f bc 3d 0e 9d 1d 3d db 35 da bd
       0.07891809 0.091887616 0.038479857 -0.10654803
000090 59 32 84 3d 94 66 d3 3c bf f1 90 bd f2 42 09 3d
       0.064549156 0.025805749 -0.070773594 0.03351111
0000a0 d2 a3 21 3d 0d f1 80 3d 36 91 6c 3d 10 5f bc 3b
       0.03946287 0.06295977 0.05775567 0.005748637
0000b0 e4 47 8f bc 58 61 03 3c f8 08 c6 bd 48 12 8d bd
       -0.017490335 0.008018814 -0.096696794 -0.068882525
0000c0 70 df 41 bc fe 91 43 bd 31 d7 e6 3d f7 15 7c bd
       -0.011833057 -0.04774665 0.11271513 -0.061544385
0000d0 c0 b9 45 3b ba f3 f0 bd 4e e2 5a bd b4 e0 d8 bc
       0.003017053 -0.11765237 -0.053438477 -0.026474334
0000e0 ef f4 6d bd 3d 79 87 bd 79 09 e7 3d fe fd 7a 3d
       -0.058094915 -0.06614921 0.11281104 0.061277382
0000f0 80 9c 81 ba b1 10 c3 3d a9 90 ed bd e6 d7 9a bd
       -0.000988856 0.09524668 -0.11599857 -0.075607106
000100 1a 9d 7a 3d aa d2 5f 3d c0 dc 5b bd 45 63 a4 3d
       0.06118498 0.054644264 -0.05367732 0.08026747
000110 20 e4 22 bb 36 9f 50 3d 1b d3 ae 3e 88 6c 44 bf
       -0.0024855211 0.050933085 0.34145436 -0.76728106
000120 78 04 b6 bf 86 3a 8d be bc 86 68 c0 bf 9c 8d 3e
       -1.4220114 -0.27583712 -3.6332235 0.2765865
000130 72 40 33 3e 96 8f 0d 3e d7 14 a8 3e 00 7c ef 3a
       0.17505053 0.13824305 0.328284 0.0018271208
000140 e2 b6 2b bd 73 c9 be 3d 8d f9 74 3e 28 ec 57 3e
       -0.041922458 0.09315767 0.23923321 0.2108618
000150 b4 83 6f 3e df 00 65 3e c3 37 c4 3d df 40 9d 3d
       0.23390085 0.22363614 0.09580948 0.07678389
000160 fe be 66 bd de cc 88 3e 57 84 a0 3e 03 00 8b 3d
       -0.056334488 0.267188 0.31350967 0.067871116
000170 20 58 89 bd 02 a6 93 bd 33 c3 f0 bd 68 5b 95 bd
       -0.06706262 -0.07209398 -0.11755981 -0.07292825
000180 a7 ca ee 3d 73 0e e1 3d e6 55 55 bd ca d1 40 bd
       0.116597466 0.10989084 -0.052083872 -0.04707507
000190 94 36 c2 bc ff b8 e4 3d 32 88 45 3d 72 e3 35 bd
       -0.023707666 0.11168098 0.04822559 -0.044406362
0001a0 d0 7f 82 bc 60 05 bc bd 96 d6 04 bd b0 6a fb bb
       -0.015930086 -0.09180713 -0.032431208 -0.0076726303
0001b0 2e c0 07 3d c0 61 9d bd bf 1b ab bd 30 ba 59 bc
       0.03314226 -0.0768466 -0.083549015 -0.013289019
0001c0 51 83 af 3d b2 03 73 3d 7d eb dd 3d a8 89 d1 bc
       0.085699685 0.059329696 0.108359315 -0.025578335
0001d0 00 82 60 3a d6 1d 2a 3d a8 99 de bd 68 db 81 bd
       0.00085642934 0.04153236 -0.10869151 -0.063406765
0001e0 d9 95 8f 3d 4b 81 ab 3d 87 7e e9 bd 81 64 c5 bd
       0.07011003 0.0837427 -0.11401086 -0.0963831
0001f0 8d 8e 9c 3d c4 1c 8f 3c 30 4c a2 3b cc 3f ae 3c
       0.07644377 0.017469771 0.00495293 0.021270655
000200 8c 8b 80 bc 66 c5 db bd 5c b5 d2 3c ea c0 bd bd
       -0.015691541 -0.1073101 0.025721245 -0.09265311
000210 40 bc 36 bd 50 47 b1 3b 8a c5 68 3d 53 60 d1 3d
       -0.044613123 0.0054101124 0.056829013 0.102234505
000220 00 0f c9 39 01 85 8e bd a2 38 47 3d 60 61 22 3b
       0.00038348883 -0.06958962 0.048637994 0.0024777278
000230 a0 3d d7 3d 33 4b 4e be 98 50 a7 be 1b f8 b9 be
       0.10509801 -0.20145874 -0.32678676 -0.36322102
000240 b6 24 bd 3f 8b f2 93 3e 4b 97 a4 3d f6 b1 fc 3d
       1.4776828 0.28895983 0.08036669 0.12338631
000250 30 20 78 3e 40 fc e2 ba 42 f9 01 3d cc 71 90 bd
       0.24231029 -0.0017317608 0.03173185 -0.07052955
000260 56 ce 03 3e ce 2a a7 3d b9 7a 8d 3e 40 fe 6d 3e
       0.1287168 0.08162461 0.27632692 0.2324152
000270 1e 7c 30 bd a6 9c 4f 3d f1 c2 91 bd a9 38 50 3e
       -0.043087117 0.0506865 -0.0711726 0.20334114
000280 86 fd 50 3e 9e ec 16 3d f4 1a dc bd 88 fe dc bc
       0.20409212 0.03684675 -0.107473284 -0.026976839
000290 f1 d9 bd bd 98 a4 fc bc b4 65 da 3c 77 22 d6 bd
       -0.09270085 -0.030840203 0.026659824 -0.104557924
0002a0 83 b9 dd bd 76 2a 72 3d 68 fc bd bd e6 bd 8c bd
       -0.10826399 0.059122525 -0.09276658 -0.06872158
0002b0 62 d9 7f 3d 44 e9 86 bd 2d 96 dc 3d 38 4e 30 bc
       0.06246317 -0.06587461 0.10770831 -0.010760836
0002c0 d6 2f 3e bd f4 74 e6 3c 90 34 b2 bd 7a e6 12 3d
       -0.04643234 0.02813194 -0.08701432 0.03586433
0002d0 8a 46 39 3d 2f 52 cb 3d e0 ff 3e bd 8c 0b ac bc
       0.045233287 0.09927785 -0.04663074 -0.0210016
0002e0 07 0b 92 bd 33 b1 b6 3d 33 d4 d6 3d 52 11 69 bd
       -0.071310095 0.08920517 0.104896925 -0.056901284
0002f0 d9 5b a8 bd c0 85 8b ba cd 71 c3 3d 81 48 b4 3d
       -0.082206436 -0.0010644719 0.0954319 0.088028915
000300 ff 63 bf 3d 80 8e 54 3a 38 d9 7c bc 80 e5 f1 bb
       0.093452446 0.00081083924 -0.015432648 -0.007382095
000310 50 75 c4 bb a8 f7 fa bc 6d e7 bc 3d 58 5e 81 bd
       -0.00599543 -0.03063567 0.092238285 -0.06316823
000320 69 3f bb 3d ff 3a a2 3d 9b f3 dd 3d 06 ce 6d 3d
       0.09142954 0.07921409 0.1083748 0.058057807
000330 f1 e2 d5 3d 17 52 94 bd 4c 0c 8d bd 89 7f 9d 3d
       0.10443676 -0.0724222 -0.06887111 0.07690341
000340 70 65 97 bc 4f ad c9 3d 9e 3f e1 bd d6 8b 81 bf
       -0.018480986 0.09847509 -0.10998462 -1.01208
000350 20 5f a0 bf c6 8f 78 bf 2a 3d 79 c0 0e 24 f3 bd
       -1.252903 -0.9709438 -3.8943582 -0.11872111
000360 42 8f 55 bc 45 f0 82 bd da 8e b7 3d a0 a4 a9 bd
       -0.013034644 -0.06393484 0.08962794 -0.08283353
000370 32 e1 b4 bd ba 4b d4 bd cb 73 31 bd 22 d5 fd bd
       -0.08832015 -0.10366006 -0.04332332 -0.123941675
000380 63 db d5 bd 42 af 8f 3d ea e1 06 3d 48 9a 4e 3c
       -0.10442235 0.0701585 0.032930292 0.012610026
000390 af cd c3 bd 0a c7 b1 bc f8 98 b4 bc 50 a8 43 bd
       -0.095607154 -0.021701355 -0.022045597 -0.047767937
0003a0 08 bb 4f 3c 69 20 89 bd 6e 17 14 3d 30 00 55 bc
       0.012678869 -0.06695635 0.036155157 -0.013000533
0003b0 35 31 8e 3d bc 8a 87 bd ce b4 5c 3d 19 16 d3 3d
       0.06942979 -0.06618258 0.053883366 0.10306949
0003c0 78 a3 7b bc b9 70 cd 3d 3a a2 4d 3d ce 6b c1 bd
       -0.015358798 0.10031266 0.05020354 -0.0944439
0003d0 2a 02 1e 3d 4a d4 46 3d 6a 37 5b 3d 94 d0 fd 3c
       0.038576283 0.0485423 0.053519644 0.030983247
0003e0 7a 14 48 bd c5 6c dd 3d 00 34 ba bb bc 31 84 bc
       -0.048847653 0.10811762 -0.0056824684 -0.016136996
0003f0 9b 95 8e 3d e6 4c 20 3d 86 e9 24 bd d5 55 b0 3d
       0.06962129 0.039135836 -0.040261768 0.08610121

fc1.bias f4 [64]
000000 a9 5a 3c 3e 8a 35 a7 3e b2 b8 85 3e 87 7e e1 bd
       0.18393959 0.32658035 0.26117474 -0.11010461
000010 a5 e4 20 3e 0c bf c9 bd 05 ec 5e 3e 78 bc 7a 3c
       0.15712221 -0.098508924 0.21769722 0.0153037235
000020 37 a0 93 3e 27 a4 4b 3d 3c 57 f2 bc 5e 53 97 3e
       0.28833172 0.049717095 -0.029582612 0.29555792
000030 50 02 47 bc 07 8d 9d bd a0 55 3a 3b 80 d7 07 be
       -0.012146547 -0.076929145 0.0028432384 -0.132658
000040 07 95 ce bd 52 d4 9a 3e 80 ed 16 3a f5 b4 39 3d
       -0.100870185 0.30240113 0.0005757436 0.04533859
000050 dc cb 83 3c 78 df 85 3d b7 5a d9 3c da a5 d6 bd
       0.016088419 0.06536764 0.026532514 -0.104808524
000060 00 54 7f 3e 7c a3 42 3d c1 41 92 3e 10 9b d7 3d
       0.24934387 0.047519192 0.2856579 0.10527623
000070 9d a1 02 3e 0c 63 4c 3e 26 b0 3d bd 8e f9 22 3d
       0.12756963 0.19959658 -0.046310566 0.039788775
000080 aa d3 46 3e ef 7f 94 bd 60 ce b5 bd ac ad 65 bd
       0.19416681 -0.07250964 -0.088772535 -0.05607383
000090 65 b1 75 3e f0 92 21 3e c3 dd 89 bb 99 a4 05 3e
       0.23993452 0.15778708 -0.0042073443 0.1305107
0000a0 64 d7 c3 3c 9a e2 77 bd 78 0c 16 3d 59 76 a2 3d
       0.023906417 -0.06051884 0.036632985 0.07932729
0000b0 d5 be 6f bc dc 06 77 3e 29 6f 82 bb 69 24 99 bd
       -0.0146329 0.2412371 -0.0039805365 -0.07477648
0000c0 ee e6 17 bd 19 a1 52 3e f2 13 d2 3d b8 a7 10 bd
       -0.037085466 0.20569266 0.102577105 -0.0353162
0000d0 72 e3 76 3e 91 a6 0b 3d 58 a3 80 3e f1 57 bf bd
       0.24110201 0.034094397 0.2512462 -0.09342945
0000e0 be 29 9a 3d 40 1d d8 ba 82 f4 09 3d 7c a7 d8 bd
       0.07527493 -0.0016488209 0.033680446 -0.1057882
0000f0 73 a1 e6 bd 43 8a 74 3e 97 d9 8a bd e8 98 36 bd
       -0.11261263 0.23880868 -0.06779783 -0.044579417

fc2.weight f4 [64, 64]
000000 d4 7e fd bd 68 9f c2 bc 34 4e 33 bd 80 83 b4 3c
       -0.12377706 -0.023757651 -0.043775752 0.02203536
000010 92 33 e3 bd c0 bd fe bd 84 43 33 3d e0 ca 40 3d
       -0.11093821 -0.12438536 0.04376556 0.047068477
000020 88 b7 9b 3d 76 16 ee 3d d8 17 61 bd 18 ff 4c 3d
       0.07603365 0.11625378 -0.05495438 0.050047964
000030 64 b0 61 bd c0 58 3e bb 00 93 59 3b 38 42 30 3d
       -0.05509986 -0.0029044598 0.003319919 0.0430319
000040 70 ac 64 bc 08 9a d9 3c a8 5c a9 bc 2a 79 95 bd
       -0.013957128 0.026562706 -0.020674065 -0.07298501
000050 d4 86 5f 3d 08 6f 5d bd 66 7c d9 bd 74 d7 c9 bd
       0.05457194 -0.054060966 -0.1061943 -0.098555475
000060 70 ae ea bc 12 48 ec 3d ec 30 10 3d b4 ac 03 3d
       -0.028647631 0.11537184 0.035202906 0.032147124
000070 98 a6 e6 bc c0 05 31 bb f0 5a 83 bc f0 08 ab 3d
       -0.02815561 -0.0027011484 -0.016034573 0.08351314
000080 30 39 d2 bc 80 48 ab bb 86 4c ab 3d 9a db e6 3d
       -0.025662035 -0.0052271485 0.08364205 0.112723544
000090 28 c5 d2 bc c0 8d 6f bd 84 22 4f bd f2 11 a8 3d
       -0.025728777 -0.058484793 -0.050570026 0.08206548
0000a0 78 fb 53 bd e0 d4 b2 3d e2 d8 c4 3d 80 17 be bd
       -0.05175349 0.08732009 0.096116796 -0.09281826
0000b0 16 8b e3 3d e0 73 38 bd 60 95 cc 3b 1e e5 99 3d
       0.11110513 -0.045032382 0.006243393 0.07514404
0000c0 86 0b 9b bd 40 12 c1 3b 08 5e ea bd ea 86 df bd
       -0.07570557 0.005892068 -0.11443716 -0.10914405
0000d0 f0 04 36 bd 10 44 61 bc 2a 9c a5 bd 78 a7 f7 bc
       -0.044438303 -0.0137491375 -0.080864266 -0.030231223
0000e0 38 8a ac bc 58 c2 27 bd 00 cd b9 3c f8 d4 af bc
       -0.021062002 -0.040956825 0.02268076 -0.021463856
0000f0 a4 60 f3 3d 4c f6 8b 3d f6 af a6 bd 64 65 4a bd
       0.11883667 0.06834087 -0.08139031 -0.0494131
000100 54 d8 ae bd 44 69 c6 3d 1e 6b 00 bd 25 aa b3 3d
       -0.08537355 0.096880466 -0.031352155 0.08772687
000110 2a 3c 4d 3c ba 31 e1 3d 64 13 6d bd 7c 97 ff 3d
       0.012526551 0.10995813 -0.05787982 0.12480065
000120 7f cb 7e bb 7f 7a 82 bd d0 61 56 3c 4a bc ba 3d
       -0.0038878617 -0.063710205 0.013084844 0.091179445
000130 74 0f 14 bd 53 4b cc bc 40 9f 9b bc 5c 43 ba bd
       -0.03614755 -0.024938261 -0.018996835 -0.09094879
000140 ff 8f 93 3d c5 94 59 bd cc a7 d9 3d 3e f5 8f bd
       0.072051995 -0.053120393 0.10627708 -0.07029198
000150 f8 bc f1 3c 71 85 c1 ba 90 78 f3 3c c4 b7 82 bd
       0.029509053 -0.00147645 0.029720575 -0.06382707
000160 20 86 e3 bd bc 8f fe 3c 41 b4 02 bd b5 60 9a 3d
       -0.11109567 0.031074397 -0.031910185 0.07537977
000170 d9 18 fc bd 72 16 b8 3d f0 a4 a9 3c a4 45 ae 3d
       -0.12309427 0.08988656 0.020708531 0.08509377
000180 ef 2e af bd a0 f9 80 bd 80 6b 32 bd f4 00 65 3d
       -0.08553874 -0.06297612 -0.04355955 0.055909112
000190 22 a1 94 bd 18 e4 aa bd b3 7f b3 3d e3 58 5b 3d
       -0.07257296 -0.08344287 0.08764591 0.053551566
0001a0 72 cc 52 bd c2 f3 17 3c 0c 16 ae bd b7 35 c0 bc
       -0.051464505 0.009274425 -0.08500299 -0.023463113
0001b0 c0 c6 50 bd 8c 0e df bd 6a b3 0e 3d 76 a8 d3 3d
       -0.050970793 -0.108914465 0.03483907 0.10334866
0001c0 3b 8c e0 3d 88 6e de 3c 3c e1 f9 3c 6c 8f 9c 3d
       0.10964247 0.027152315 0.030502908 0.07644543
0001d0 25 fb 0a be 40 35 f3 bb 66 4e 1f bc 80 c2 bc 3c
       -0.13572367 -0.0074221194 -0.0097232815 0.023041964
0001e0 8c 13 a7 bd 98 5f 31 3d c8 b8 80 3c 6a 8b f4 3d
       -0.08158025 0.043304056 0.01571311 0.119406536
0001f0 b4 03 70 3d 88 2d bb bd 96 eb ac bd 80 37 6c bb
       0.05859728 -0.09139544 -0.08443372 -0.0036043823
000200 94 9e 96 3d 94 85 af 3c 5a 02 26 3d 33 63 b5 bb
       0.07354465 0.021426 0.040529586 -0.005535507
000210 a2 6f 72 bd 30 50 57 bd 56 5e 1b be cc f7 af bd
       -0.059188493 -0.052566707 -0.15172705 -0.085921854
000220 1e fc f2 3c ac 39 fd bd fe 04 a8 bd f2 8c 7f 3d
       0.029661234 -0.12364516 -0.08204077 0.062390275
000230 68 7b 0b 3d 9a fe 8a 3d dc 93 e0 3d 54 b9 b3 bd
       0.034053236 0.06786843 0.10965702 -0.08775583
000240 c2 41 82 3d 18 e1 4b bd d6 18 aa bd df 8f 0a be
       0.063601986 -0.049775213 -0.08305518 -0.13531445
000250 f8 92 fb 3c b2 71 f6 bd b2 46 84 bd 60 61 b4 bc
       0.030709729 -0.120334044 -0.064587966 -0.022019088
000260 58 4f 15 be d6 ea ae 3d 0a 7d e2 bc 11 7e 9b 3d
       -0.14581048 0.08540885 -0.027647514 0.07592405
000270 ab c5 a9 bc f8 3b e6 3c 36 31 f2 3d c0 94 c1 bb
       -0.020724138 0.028104767 0.118257925 -0.005907625
000280 45 10 d5 ba 4c 88 fc 3d d5 ee 9d bd 4a 3f c0 bd
       -0.0016255459 0.12330684 -0.07711569 -0.093870714
000290 c8 4e ba bd 3c 22 ba bd 0c 39 d6 bd cb 07 20 bc
       -0.090970576 -0.09088561 -0.104600996 -0.009767483
0002a0 f4 4b 25 bd 10 42 8b bc 50 25 af bc a6 6f 88 bd
       -0.040355638 -0.016999274 -0.021380097 -0.0666192
0002b0 28 a7 ff 3d 10 58 cf bc 28 5b d2 3c 34 5c 9f bd
       0.124830544 -0.025310546 0.025678232 -0.07781258
0002c0 c0 07 fd bd a4 4a 03 be f8 7a 9b 3c 46 6a 79 bd
       -0.12354994 -0.12821442 0.018979535 -0.060892366
0002d0 e2 b1 19 be ac 4b 7e 3d cb 1e f0 bc 1a b0 a9 3d
       -0.15009263 0.062083885 -0.029311558 0.08285542
0002e0 6c 86 19 3d 28 30 ca bd de 82 cb bd 8e 65 a0 3d
       0.03748171 -0.09872466 -0.0993707 0.0783187
0002f0 2a b7 b7 bd 63 bc 15 bc 58 75 e2 3d 38 3a 58 bd
       -0.08970483 -0.009139153 0.11057538 -0.052789897
000300 f1 b8 8e 3e 18 91 14 bf d6 5f b8 3d 99 e1 7a bf
       0.27875474 -0.58033895 0.09002654 -0.98000485
000310 c2 6b 1a 3f fc 9b 22 3d 63 d6 0b 3e 80 86 1b bc
       0.60320675 0.03969954 0.13656001 -0.0094925165
000320 8d 60 7f bd bc 35 a0 bf ca 16 f1 3d 87 41 e3 be
       -0.062347937 -1.2516398 0.11771925 -0.4438593
000330 1e de 9e 3d b6 04 68 3f 60 76 66 bc bf 41 8c bf
       0.07757209 0.9063219 -0.014066309 -1.0957564
000340 fa 3f ad bf 0b ae d0 be c0 91 e4 bb 0f 7a 3b be
       -1.3535149 -0.40757784 -0.0069753826 -0.1830828
000350 64 d7 e2 3d d0 11 c9 3d c8 8f a1 be e0 cc a4 bb
       0.11076239 0.098178506 -0.3155501 -0.005029306
000360 b2 d2 ef bb 12 f8 01 bc a4 cb bd be 9e b5 71 3e
       -0.007318818 -0.00793268 -0.37069428 0.23604438
000370 df 6b ec 3b 4f 00 b7 3e 32 41 a6 bd ce 9e e4 3d
       0.0072150077 0.35742423 -0.08117904 0.11163102
000380 2d 60 01 bf 20 63 1d 3c 04 3f 45 be 70 9a f0 3d
       -0.5053738 0.009606153 -0.1926232 0.117482066
000390 70 1a 23 3c 26 eb ad 3e 4f 47 b2 be 66 4d 2c 3f
       0.009955034 0.33968467 -0.3482003 0.673056
0003a0 03 92 40 3e 0d b6 49 3f 45 7f 8c be 36 fe 3a bf
       0.18805699 0.7879341 -0.2744085 -0.73044145
0003b0 f4 d7 80 3d f4 31 3c 3c e8 68 d6 bd 54 bf bb 3d
       0.0629119 0.011486519 -0.10469228 0.09167352
0003c0 1a b4 ce bd 1d a9 6e 3d 21 18 78 3f 77 5f 02 c0
       -0.100929454 0.058266748 0.9691182 -2.0370767
0003d0 b5 cb 0a 3c 4b 11 a5 be 10 55 0d 3e fa 20 a7 bd
       0.008471419 -0.32239756 0.1380198 -0.08160587
0003e0 d1 42 75 3f 80 ad 63 3c ac 8e f8 3d 5e 84 b5 3d
       0.9580508 0.013896346 0.121365875 0.08863138
0003f0 a8 1b 10 3d 9a 70 d7 3e d9 24 7f bd fb fe 6a bf
       0.035182625 0.42078096 -0.062291 -0.9179532

fc2.bias f4 [64]
000000 d0 ee 2e bc e4 54 bc bd dd aa 66 3d 76 67 94 3d
       -0.0106770545 -0.09195879 0.05631529 0.07246296
000010 df b5 96 bd 89 4e 15 3b 7c 55 65 bd ea d7 b8 3d
       -0.07358908 0.0022782406 -0.055989727 0.09025557
000020 41 a8 21 3d 5b fd 6f 3e 01 61 2e 3e 77 5f 1c ba
       0.0394671 0.23436491 0.17029192 -0.0005965153
000030 0d 04 89 3e bf fb c8 bc a4 87 9a 3e b7 69 04 3d
       0.26760903 -0.024534104 0.3018161 0.03232738
000040 c6 e0 21 3e 1d 9f 35 3e 69 46 e9 bd 5e 10 b7 3d
       0.158084 0.17736478 -0.11390383 0.08938669
000050 33 e0 b9 3e b9 fd 7e 3e c3 73 94 bd e3 e8 a1 bd
       0.36303863 0.24901475 -0.07248642 -0.07905748
000060 09 e9 7b bd ad 4a c9 3e 87 a0 bd 3d fb e5 4e 3e
       -0.061501537 0.39314786 0.09259134 0.20204918
000070 13 52 df 3d 97 25 aa 3e b0 ca 80 3e 64 40 87 3e
       0.10904326 0.33231804 0.25154638 0.26416314
000080 ef 9b 4d 3e 4e a5 0c be 62 71 94 3d 42 7e a8 3e
       0.20079015 -0.13734934 0.072481886 0.32908827
000090 24 7d 23 3e b5 88 73 3d 81 dd 4d bc ea 6b 17 bd
       0.15965706 0.059456546 -0.012565018 -0.03696815
0000a0 05 9f 78 3d bb 06 66 bd 46 2a 0c be 89 fc 2a be
       0.060698528 -0.056158762 -0.13688001 -0.16697897
0000b0 93 58 f1 bd 47 af e4 bd 53 58 00 be cd e1 4d 3d
       -0.11784472 -0.11166244 -0.12533693 0.05026417
0000c0 ed 52 e0 3d 82 d3 cf 3e 48 56 f4 3d 14 7e 92 bc
       0.10953317 0.40591055 0.11930519 -0.017882384
0000d0 2e d5 4a 3e e1 e5 9d 3e dd 30 fc 3d ce e2 d8 3e
       0.19807884 0.30839446 0.123140074 0.42360538
0000e0 f4 d3 20 3e e9 b5 15 3e ae 87 94 3d f5 cf c2 3c
       0.15705854 0.14620174 0.07252441 0.023780802
0000f0 05 28 75 3e a9 ec ae 3e d6 6f 82 3d db 22 f6 bb
       0.23941047 0.34164932 0.06368987 -0.0075114793

fc3.weight f4 [36, 64]
000000 2a cd a6 bd d0 4b 87 bc 74 bf 19 bd 20 f9 90 3e
       -0.08144601 -0.016515642 -0.0375361 0.28315067
000010 e2 b8 8c bd 28 4d ac bc c0 cb c0 3b 53 dc b4 bd
       -0.06871201 -0.021032885 0.005883664 -0.08831086
000020 80 39 95 ba 83 80 75 3e ab 0d 1b 3f 82 81 15 3f
       -0.0011384934 0.23974805 0.6056773 0.5840074
000030 7f 89 29 3e e5 91 e3 3e c8 a5 46 3e 22 11 8f bd
       0.16556357 0.44447246 0.19399178 -0.0698569
000040 0f b4 ed 3e f4 e0 ca 3e b4 ac 72 3d 88 30 8b bc
       0.46426436 0.3962475 0.059246734 -0.016990915
000050 dc 1f 92 3e 76 5f ba 3e 38 ea e4 bc b0 56 a2 3d
       0.28539932 0.36400956 -0.027943715 0.079266906
000060 36 b4 93 3d 47 99 11 3e 26 ee c6 3e da 01 0d 3f
       0.07212107 0.14218627 0.38853568 0.5508095
000070 33 fe ac 3e f6 75 5d 3e 56 8c b5 3e 8b fa cd 3e
       0.3378769 0.2162703 0.3545863 0.40230212
000080 e3 b1 98 3e 74 9d 35 3d a0 66 8d 3d 6d ed eb 3e
       0.29823217 0.044339612 0.0690434 0.4607958
000090 44 f9 22 3f 69 b5 30 3f a4 0f d8 3d 50 4b 59 bc
       0.636616 0.6902681 0.10549858 -0.013262585
0000a0 30 94 a2 bd 0c 2c c7 bd 00 1a a1 b9 40 43 e6 3d
       -0.07938421 -0.09725198 -0.00030727684 0.11243296
0000b0 c0 e6 47 bd 10 67 45 3c 9a 8c e4 3d f4 b9 32 bd
       -0.048804045 0.012048498 0.1115963 -0.04363437
0000c0 c7 d2 b8 3e 96 7f 56 3e 93 d9 36 3f bc be f5 bd
       0.3609831 0.20947108 0.7142574 -0.1199927
0000d0 b3 cf 09 3f 35 31 20 3f e0 e7 bd 3e 54 33 14 3e
       0.5383255 0.62575084 0.3709097 0.14472705
0000e0 3f 6f 3e 3f 26 28 94 3e 69 ad 3d 3e 39 b5 f3 3e
       0.743885 0.2893688 0.18523182 0.475992
0000f0 5e 54 bf 3e 3c 7f 06 3f 0a 63 a2 3d d6 47 a8 bd
       0.37369055 0.52537894 0.079290465 -0.082168266
000100 c8 69 48 3d 00 bc 79 ba 9c da f1 3d fc 38 8a 3e
       0.048929006 -0.00095266104 0.118092746 0.269966
000110 54 db 7d 3d a8 01 e1 3c f0 12 38 bd 6e 77 c4 3d
       0.061976746 0.02746661 -0.044939935 0.09593092
000120 88 a9 46 3d 94 08 58 3e 68 96 1c 3f a6 60 ce bb
       0.04850152 0.21097022 0.61167 -0.0062981425
000130 01 ff 8f 3e e7 40 ac 3d 09 45 f9 3d 00 be 92 3a
       0.2812424 0.08410817 0.121713705 0.001119554
000140 ee 65 1d 3f 26 3b cf bd 7c 8f d1 bd 80 fe 16 3b
       0.6148366 -0.101187035 -0.102324456 0.0023039877
000150 a7 b7 41 3e b5 19 5a 3e f8 73 82 bc 78 82 c5 3c
       0.18917714 0.21298869 -0.015924439 0.024110064
000160 26 0a 8c bd 19 a4 f8 3d 0c 20 11 3f 70 c8 21 3f
       -0.06837873 0.12140674 0.56689525 0.6319647
000170 61 de ea 3e 04 0b 28 3e 18 1d b6 3e dc 9e da 3e
       0.45872787 0.16410452 0.35569072 0.42699325
000180 4b 64 74 3e 86 69 f0 3d e0 90 ee 3d a3 8b ad 3e
       0.23866384 0.11738877 0.116487265 0.33895597
000190 9b 70 31 3f 9a ca 79 3f 7a 55 f5 bd 00 a4 bc 3a
       0.6931245 0.9757477 -0.11979194 0.0014392138
0001a0 5d 0f 21 3e 64 dd 23 bd ac 36 cc 3d 3c fc b0 3d
       0.15728517 -0.040006056 0.09971365 0.0864186
0001b0 58 49 7a bd d4 1b 8e 3d 74 82 53 3d ec a1 f5 3d
       -0.061105102 0.069389015 0.05163808 0.11993775
0001c0 e8 4b fc 3e 61 ad 16 3e 07 42 b8 3e 00 69 e7 bd
       0.49276662 0.14714576 0.35987875 -0.11299324
0001d0 0f fc d4 3e 8a 58 e3 3e de 45 bb 3e 63 cd 86 3e
       0.41598555 0.44403487 0.36576742 0.26328573
0001e0 86 43 31 3f 3b 19 86 3e c9 8f 33 3e a9 a0 12 3f
       0.6924366 0.26191124 0.17535318 0.572764
0001f0 19 33 0d 3f 5e fd 50 3f 92 c2 d6 3d 1c 51 62 3d
       0.55156094 0.8163661 0.1048633 0.055253133
000200 e4 5b 26 3d 98 44 c5 bc 6e ea cd 3d c9 a6 d7 3e
       0.040614977 -0.02408056 0.100544795 0.42119434
000210 00 6a e9 bd 7c d1 f0 3d 48 c2 ed 3c 5c b6 01 bc
       -0.11397171 0.11758706 0.029023305 -0.007917013
000220 40 e9 69 bd df 28 4d 3e b7 bc ca 3e 31 7e 43 3f
       -0.05710721 0.20035122 0.39597103 0.7636443
000230 d9 85 84 3e 94 82 ae 3e 81 58 82 3e ba c5 e2 bd
       0.25883368 0.34083998 0.25458148 -0.110728696
000240 ee be e7 3e 4b ba 06 3f f0 fa e0 3d 77 9d 4c bd
       0.45262855 0.5262801 0.109853625 -0.049954858
000250 ea 57 f5 3e a0 44 02 3e a4 a7 3c 3d a0 79 3b 3d
       0.47918636 0.12721491 0.046058312 0.045770288
000260 a4 bb ad 3d 9e ed e4 3e ee c7 07 3f e0 67 37 3f
       0.08483055 0.44712538 0.53039443 0.71642876
000270 6e 58 29 3f 62 ca 38 3e 84 dc b4 3e b7 b5 c7 3e
       0.6615056 0.18045953 0.3532449 0.39005825
000280 2e 63 ec 3e 9c 09 ad 3d 36 05 e9 bc 68 65 76 3e
       0.46169418 0.084490985 -0.028444868 0.24062121
000290 da f1 12 3f 07 44 aa 3e 1e c3 cc bd 44 37 13 bd
       0.57400286 0.33255026 -0.09998153 -0.035941377
0002a0 97 9f b7 bd 1a 22 d4 3d 00 50 fc 3d b0 a5 f3 3c
       -0.08965986 0.10358067 0.12319946 0.029742092
0002b0 ec 31 16 bd ce 97 90 bd 80 c8 95 ba 84 32 06 bd
       -0.036668703 -0.070602044 -0.0011427552 -0.03276302
0002c0 3c 63 ba 3e 2b e9 89 3d 48 52 b2 3e a4 c1 56 3d
       0.36403835 0.067339264 0.348284 0.052430764
0002d0 ec 76 c6 3e d6 dd 00 3f a3 29 a0 3e 28 bb 14 3e
       0.38762605 0.50338495 0.31281766 0.1452452
0002e0 53 3e 2b 3f 7d dc 17 3e 80 61 da 3d a6 1f 0f 3f
       0.66891974 0.14830203 0.10663128 0.55907667
0002f0 2d 6e 62 3e f0 38 68 3f c6 0d ba bd f2 08 b8 bd
       0.22112341 0.9071188 -0.09084658 -0.08986081
000300 48 24 e9 bd 16 5d ea 3d 3e 9d f8 3d 3e 3e a0 3e
       -0.11383873 0.11443536 0.121393666 0.31297487
000310 12 46 96 3d 2c a9 7a bd 20 ed be bb 54 9b 09 3d
       0.073375836 -0.06119649 -0.0058266073 0.033595398
000320 00 ce b0 bc 62 57 96 3e 57 0c 92 3e b9 d1 1e 3e
       -0.021582603 0.29363543 0.2852504 0.1550969
000330 6e 50 95 3e 2e 1e 31 3e 2e db 53 3e c8 3d 74 3d
       0.29162925 0.17296669 0.20689079 0.05962923
000340 42 99 0b 3f 92 c3 86 3e 28 bb e5 bd f8 fc 25 3d
       0.5453073 0.26321083 -0.11217338 0.040524453
000350 5f ff d2 3e 42 19 66 3e d8 42 3b 3d a8 51 9f bc
       0.41210458 0.22470573 0.045718044 -0.019448116
000360 68 23 aa 3c d7 c4 58 3e c6 fa 34 3f 3c bc 19 3f
       0.020768836 0.21168838 0.7069515 0.6005285
000370 3c 93 04 3f d4 5b 3e 3e 29 9d b1 3e cd 28 9d 3e
       0.5178716 0.18589717 0.34690216 0.3069519
000380 ac 8a 74 3e cc 42 6c 3d 3f a1 c8 3d 19 d5 a5 3e
       0.23881024 0.05768089 0.0979638 0.32389143
000390 36 fd 98 3e 52 c2 7b 3f 20 df e4 bd 1e ee b2 3d
       0.29880685 0.98343384 -0.1117537 0.087368235
0003a0 9d 3e e8 3d 8c 60 b2 3d d8 a9 b9 bd 3e 0b a5 3d
       0.113400675 0.08709821 -0.09065598 0.08058785
0003b0 72 5b 9d 3d 66 7c d4 3d 02 88 fc bd 47 4b 8d 3c
       0.076834574 0.103752896 -0.12330629 0.01724781
0003c0 b5 b8 ca 3e 4e f3 9f 3e 77 9f 04 3f ac b2 22 bd
       0.39594045 0.31240314 0.51805824 -0.039721176
0003d0 9c 75 e5 3e 46 96 d0 3e 1a 49 c9 3e 39 f7 74 3e
       0.4481629 0.4073965 0.39313585 0.23922433
0003e0 41 3d 22 3f fd 7d d2 3d 1d 7c 26 3e 12 99 08 3f
       0.63374716 0.102779366 0.16258283 0.53358567
0003f0 90 40 a2 3e d5 71 4b 3f e8 e2 8a 3d d0 87 43 3c
       0.31689882 0.7947057 0.0678156 0.011934236

fc3.bias f4 [36]
000000 b6 c4 9c 3e 67 9b 9f be 0e 80 9b 3e ed fd b9 3e
       0.3061883 -0.3117325 0.30371135 0.36326542
000010 40 05 ba 3e c4 a0 7a bc fc fd ba 3e 21 ca 3d 3e
       0.3633213 -0.015297119 0.365219 0.18534137
000020 18 a1 29 3e 67 50 95 3e d7 b0 a5 3e 40 d6 72 3d
       0.16565359 0.29162905 0.3236148 0.059286356
000030 fc 54 8e 3e 1a 05 52 3e 92 e7 e6 3e ca 64 0a 3d
       0.27799213 0.20509759 0.4509855 0.033787526
000040 c0 c2 9d 3e ad f8 85 3e 0c 02 f0 3d 6f 3c d5 3e
       0.30812645 0.26166287 0.117191404 0.4164767
000050 f4 00 7a 3e 97 39 5a 3e d0 c8 ba 3e cc 6a c7 3c
       0.24414426 0.21311031 0.36481333 0.024342917
000060 e0 17 d2 3e 52 93 33 3e 19 4f 10 3d 16 c4 86 3e
       0.4103384 0.17536667 0.035231683 0.26321477
000070 4f 9c 5d 3f 95 27 64 3e 2f c7 13 3f 77 b8 74 3e
       0.86566633 0.22280724 0.57725805 0.23898493
000080 c2 20 9e 3e 69 32 30 3e b0 92 00 3f 63 aa 6a 3e
       0.30884367 0.1720673 0.5022383 0.2291656
