planner_zoo/model_for_mbrl.pth (torch, 42383 bytes, 6 tensors)

MLP.0.weight f4 [64, 72]
000000 b6 13 0d bd ca b2 53 bd 29 c7 99 3d 77 19 e2 bd
       -0.034442626 -0.05168418 0.0750869 -0.11040013
000010 69 8c b4 3d 00 4e 75 b9 c6 76 8c bd 70 35 51 bc
       0.088158436 -0.00023394078 -0.06858592 -0.012769088
000020 50 0a 0a bd bc 58 ab bd 84 af 82 bc d3 a1 a2 3d
       -0.03370124 -0.08366534 -0.015952833 0.07941022
000030 d7 ea ac 3d 36 1e 91 bd df c7 b4 3d e5 0d 75 bd
       0.0844323 -0.070858404 0.08827185 -0.059827704
000040 38 f4 aa bc 0a 69 e4 bd 16 36 de bd ba 68 0b 3d
       -0.020868406 -0.11152847 -0.1085016 0.034035422
000050 a0 cf 3d bc 60 d7 c1 bd 4f f6 a7 3d 45 4c 8c 3d
       -0.011585146 -0.09464908 0.082012765 0.06850485
000060 c4 69 a1 bd 5d 41 b9 bd 75 ae 98 3d 6c 40 84 3c
       -0.07881501 -0.0904567 0.0745515 0.016144
000070 d3 a0 9c 3d 4a 02 14 bd 5d 6b bc bd 44 1e 14 bd
       0.07647862 -0.036134996 -0.092001654 -0.036161676
000080 41 1d 8f 3d 6c 41 9f bd 08 a8 6e bc 00 a1 3e bb
       0.069880016 -0.0777615 -0.014566429 -0.0029087663
000090 12 fe 41 3d 76 94 16 3d 95 7c e3 3d b8 76 38 3c
       0.04736144 0.036762677 0.111077465 0.0112587735
0000a0 93 84 95 bd 08 35 92 bd 22 99 1d 3d 40 c1 23 bc
       -0.07300677 -0.07139021 0.038476117 -0.009994805
0000b0 7a 8e 43 3d 11 f4 ef bd 54 91 a8 3c 9c 60 b5 bd
       0.047743298 -0.11716474 0.02057711 -0.088563174
0000c0 2f a5 cf 3d 65 cf b1 3d 37 a5 90 bd ad 96 96 3d
       0.10138928 0.086821355 -0.07062762 0.07352958
0000d0 13 4f 92 3d f7 3a 94 3d 88 2b a4 bd f0 12 95 bc
       0.071439885 0.07237809 -0.080161154 -0.018197507
0000e0 8b 0c bd 3d f6 f9 b7 bd c4 4e 88 3c 5d 9d a5 bd
       0.09230908 -0.08983223 0.01663912 -0.08086655
0000f0 a8 f8 aa bd 15 34 cc 3d cb 54 a7 3d 60 75 3c 3b
       -0.08348209 0.09970871 0.0817047 0.0028756484
000100 e4 87 9e 3c 36 0f 09 bd 90 bd 22 bc e1 3b 85 3d
       0.019351907 -0.033461772 -0.009932891 0.065055616
000110 44 92 5c bd 89 7e c5 3d a4 48 ab bd a8 1c 5b 3c
       -0.053850427 0.09643275 -0.083634645 0.013373531
000120 22 6e 1a 3d fc 11 cc bc 8a 21 a0 bd 9f 7c b6 3d
       0.037702687 -0.02491092 -0.07818897 0.08910488
000130 a3 ae c6 3d 30 dd 93 bb 89 c5 c5 3d 60 91 b7 bb
       0.09701278 -0.0045124516 0.096568175 -0.005602047
000140 34 e5 0f bd 8e 11 94 bd 4f 2f e3 3d a0 cc ba bc
       -0.035130695 -0.07229911 0.11093008 -0.02280265
000150 7e 85 56 3d 6e c1 4d bd 60 8c f4 bb 07 5a 9a 3d
       0.0523734 -0.050233297 -0.007463023 0.075367026
000160 3c 62 e1 3c e9 56 9c 3d 00 d4 5a 3a 45 f9 c2 3d
       0.027512662 0.07633764 0.00083476305 0.09520201
000170 19 63 ef 3d 7b 0e e2 bd c1 b3 cd 3d c4 ec d9 3c
       0.11688823 -0.11037918 0.10044051 0.026602156
000180 00 8d bb 39 40 a2 7f 3b 31 8b c7 3d fc ab e0 bd
       0.00035772473 0.003900662 0.097433455 -0.109703034
000190 f5 6b db 3d 27 6a 8b 3d c2 e7 13 3d 8d 2a c1 3d
       0.107139505 0.06807356 0.036109693 0.09431944
0001a0 5f 04 bb 3d 85 ad d5 3d 8d f7 89 3d e8 b5 21 3c
       0.09131693 0.10433487 0.0673667 0.00987003
0001b0 0d 8b 8c 3d 80 79 d3 bb 94 6d de bc ff 09 ad 3d
       0.06862459 -0.006453693 -0.02715186 0.08449172
0001c0 57 ed 98 3d 27 16 94 bd b0 93 01 bc 47 23 c7 bd
       0.07467144 -0.07230788 -0.007908747 -0.097235255
0001d0 4b 6d dd 3d a6 66 59 bd b3 93 9d 3d f0 f3 f2 bc
       0.108118616 -0.05307641 0.07694187 -0.029657334
0001e0 f6 19 9f bd 3e ed d7 bd f2 ee 2c 3d eb 6e d0 3d
       -0.077686235 -0.10543297 0.042220064 0.10177406
0001f0 4f 6e bc bd bf fa c1 3d bc bb 83 3c 04 d7 ee 3c
       -0.09200727 0.09471654 0.01608073 0.029155262
000200 9c 40 f2 3c d0 09 cd bd 5c 24 c1 bd ea fd 5f 3d
       0.029571824 -0.10011637 -0.09430763 0.05468551
000210 f5 0c 69 bd fe 81 10 3d ac b1 ab bd d8 8b d4 bc
       -0.056897122 0.03528022 -0.083834976 -0.025945589
000220 75 5e dc 3d 88 8d 98 bc 06 7e 85 bd bc 9c 9e 3c
       0.10760204 -0.018622175 -0.06518178 0.019361846
000230 9c c6 fd bc 66 8f 7c 3d df fe d8 3d 7c 6f 98 3c
       -0.030978493 0.061660193 0.10595488 0.018607847
000240 cc a1 af bc 06 df 13 3d af 48 85 3d bb 67 91 3d
       -0.021439455 0.036101364 0.06508004 0.07099863
000250 00 bb 05 bd 9e 07 2d 3d 15 8f b8 3d b8 a5 a6 bd
       -0.03264904 0.042243592 0.09011666 -0.08137077
000260 ba ec 0d bd e6 83 93 bd 84 1e ae 3c fa 2a dd bd
       -0.03464959 -0.07202892 0.021254785 -0.10799213
000270 5d 3b 9c 3d 86 f2 b9 bd 90 54 83 3b fe 9c 5b 3d
       0.0762851 -0.09079461 0.0040078834 0.053616516
000280 0e cd 86 bd c4 89 95 bd 3a 12 64 3d 67 40 83 bd
       -0.0658208 -0.07301667 0.055681445 -0.06408768
000290 8b b6 9c 3d 2b 6c 9c 3d 94 4e 9c bd b3 40 b2 3d
       0.07652005 0.07637819 -0.07632175 0.08703747
0002a0 70 dc a2 3b 8e 49 74 bd ec f9 a7 3c 00 9e de bd
       0.004970126 -0.05964046 0.020504914 -0.1086998
0002b0 54 92 4b bd 5c aa d1 bc 40 22 e4 ba 12 8a 5a 3d
       -0.049700096 -0.025593929 -0.0017405227 0.05335433
0002c0 f4 8c a4 3c bb 56 8a 3d e8 bc 1f 3c 70 38 ef 3b
       0.020086743 0.06754824 0.009749629 0.007300429
0002d0 56 87 3c 3d 00 c6 a9 b9 3c ae ae bc 24 60 aa 3c
       0.046027504 -0.00032381713 -0.021323316 0.020797797
0002e0 28 c8 a3 bd 26 be 51 3d 54 dd c4 bc 28 31 14 bc
       -0.07997161 0.05120673 -0.024031319 -0.009044923
0002f0 76 6d df bd 80 76 fb bb 62 ed 74 bd 36 3e 68 3d
       -0.1090955 -0.0076740384 -0.0597967 0.056699954
000300 45 b8 c2 3d 13 f8 89 3d 3f 11 cd 3d 6b 20 85 bd
       0.09507803 0.067367695 0.10013055 -0.06500324
000310 df ac 96 3d 4c 5b d0 bc 78 a8 6b 3c c8 3b 8c bd
       0.07357191 -0.025434159 0.014383428 -0.0684734
000320 8e bf 7a 3d 9b 27 9b 3d 08 31 37 bd 5d 07 d1 3d
       0.061217837 0.075759135 -0.044724494 0.102064826
000330 6e d2 00 bd 09 c8 9a 3d 8b 0f 8c bd 9c 7c 91 bd
       -0.03145068 0.07557685 -0.06838902 -0.071038455
000340 f0 ae 43 bd 00 d9 08 3a 35 53 ee bd 12 58 3d bd
       -0.047774255 0.0005220324 -0.11636964 -0.04622657
000350 b2 cd 00 3d 66 21 4b bd c5 30 9d bd 4e 7f ea bd
       0.031446166 -0.049592398 -0.07675318 -0.11450063
000360 52 a5 01 3d 20 17 44 3b 37 dc de 3d 82 a1 5b bd
       0.031651802 0.002992101 0.108818464 -0.053620823
000370 68 12 34 bc 2c 12 a6 3c 2e 8c ac bd 50 2b d4 bc
       -0.0109907165 0.020272337 -0.08425175 -0.02589956
000380 82 0e 55 bd 90 8b 99 bc 52 1c 6e 3d 21 ac 8e 3d
       -0.05201579 -0.018743306 0.058132477 0.06966425
000390 11 ff a8 3d a1 2a ad 3d ea a4 62 3d 30 09 38 bd
       0.08251775 0.084553964 0.055333056 -0.044930637
0003a0 bd 5e a1 3d 68 39 65 3c 39 76 e4 bd fe 35 5f 3d
       0.07879398 0.0139907375 -0.11155362 0.05449485
0003b0 eb 6d cf 3d d1 52 8e 3d a2 37 5b bd f8 4e a9 bc
       0.10128387 0.0694939 -0.053519852 -0.020667538
0003c0 88 c4 01 bc 58 16 42 bc f0 74 ff 3b a6 c6 a6 bd
       -0.007920392 -0.0118461475 0.0077959225 -0.08143358
0003d0 fa fc 51 3d 43 d9 96 3d 5c b1 07 bd 07 ac ab bd
       0.051266648 0.07365658 -0.033128127 -0.08382421
0003e0 40 33 27 3b 92 a4 3f bd 0b 67 8d 3d d1 dd 8a 3d
       0.0025512725 -0.046787806 0.069044195 0.06780589
0003f0 44 74 8d bc 04 26 b2 bd 9e 05 70 3d 86 21 ae bd
       -0.017267354 -0.08698657 0.058599107 -0.08502488

MLP.0.bias f4 [64]
000000 e3 85 bc 3d 49 d2 c1 3d 6e 58 10 3d 43 06 c1 3d
       0.09205224 0.09463937 0.035240583 0.094250225
000010 c5 90 df 3d 36 5c 9f bd 3e d0 49 3d 0b 01 97 3d
       0.109162845 -0.0778126 0.04927086 0.07373246
000020 0e a7 67 3d c9 09 e3 3d 08 28 49 3c e0 4f 71 3b
       0.0565558 0.11085851 0.012277611 0.003682129
000030 b3 1c a1 bd 9f 79 e4 bd bd 0f 9d 3d 1e 10 8e bd
       -0.07866802 -0.1115601 0.076690175 -0.06936668
000040 52 87 b4 bd 2f ba bb 3d 5e 38 31 bd c8 5a 32 3c
       -0.08814873 0.09166371 -0.043266647 0.010885902
000050 08 21 98 bd 47 67 cd 3d a8 f9 2a 3c 25 1c 80 3d
       -0.07428175 0.10029464 0.010435499 0.06255368
000060 c1 54 dd 3d 08 6e 41 3c 42 a3 4a bd 7e a7 50 bd
       0.10807181 0.011806019 -0.0494721 -0.050940983
000070 51 7a ee bd ef 01 ab 3d d2 52 5b 3d b1 43 ef 3d
       -0.11644424 0.08349978 0.05354578 0.11682833
000080 c7 17 b7 3d e8 26 64 3c 4c f0 ee bc 09 34 d2 bd
       0.08940082 0.013925292 -0.029167317 -0.10263831
000090 8d ba c8 3d d8 4e 98 bc da 06 87 bd f8 be 0d bd
       0.09801207 -0.018592283 -0.06593104 -0.03460595
0000a0 9e 84 ba bd 72 5d 02 3d f5 6f cd bd 5b 6d 88 3d
       -0.09107326 0.031827398 -0.1003112 0.06661483
0000b0 0a 80 41 3d 13 4c c2 3d df d8 93 bd 3e fe 71 bd
       0.04724125 0.09487166 -0.07219099 -0.059080355
0000c0 42 87 a8 bd 1b e6 ea 3d 00 38 7e 38 22 42 13 3d
       -0.082289234 0.114696704 6.0610473e-05 0.03595174
0000d0 e8 cd b5 bd d0 3a b9 bb 70 ec fc bc 02 f2 6f 3d
       -0.08877164 -0.005652763 -0.030874461 0.058580406
0000e0 99 c2 d5 bd bc ab c8 bd e0 92 bd 3b c9 0b ef 3d
       -0.10437507 -0.09798381 0.005785331 0.1167217
0000f0 fd 43 bd 3d 1e f0 16 3d 60 ed ae bd 8b 17 93 3d
       0.09241483 0.036850087 -0.085413694 0.07182225

MLP.2.weight f4 [64, 64]
000000 10 04 aa 3c 88 5e 84 bc d0 83 57 3c 30 07 e0 bd
       0.02075389 -0.016158357 0.013153985 -0.10938871
000010 ce 49 e8 3d f0 62 01 3d d0 37 60 bc d0 a0 bb 3c
       0.11342202 0.031588495 -0.013685182 0.02290383
000020 b4 85 20 3d 70 5d 11 3c a8 b6 db bd d0 16 09 bd
       0.03919001 0.008872375 -0.10728198 -0.03346902
000030 d8 2d 81 bc e8 9b 86 bc c8 4d 12 3d 0a 01 c3 bd
       -0.01576893 -0.016431764 0.03571871 -0.095216826
000040 ae 3e b1 3d 88 c3 e3 3d e8 17 f6 3c c0 a1 4b bb
       0.08654533 0.11121279 0.030040696 -0.0031071752
000050 70 11 13 3c d4 f0 b1 bd 68 dd ea 3c 6a 3e b3 bd
       0.008976325 -0.086885124 0.028670028 -0.08752139
000060 84 bf 33 bd 16 63 8f bd d8 2f 81 3d 94 8e 1c 3d
       -0.043883815 -0.07001321 0.063079536 0.03822191
000070 f0 69 48 3d 06 9d d1 3d 06 b2 ab bd 20 57 ae 3d
       0.048929155 0.10235028 -0.08383565 0.085127115
000080 1e 61 99 3d 28 48 92 3d b2 f6 84 bd f0 b8 57 bc
       0.07489227 0.07142669 -0.06492366 -0.013166651
000090 54 34 30 bd d8 31 87 bd fc ca 64 3d 46 41 ff bd
       -0.043018654 -0.06601304 0.055857643 -0.12463622
0000a0 68 63 52 bd 90 29 8e bc 70 36 31 3c 20 cc 58 3c
       -0.051364332 -0.017353803 0.010816202 0.013232261
0000b0 ae ee e5 bd e6 c8 f1 3d 3c de f7 bd 20 5a a4 3d
       -0.11227165 0.118058965 -0.12102935 0.080250025
0000c0 40 f1 5d bd 40 4b 5f bb 18 0e a2 3c 08 66 82 3c
       -0.054185152 -0.0034071952 0.019782111 0.015917793
0000d0 8e 2f af 3d 4c 59 3b bd 4a bf ef bd 00 a2 3a 3a
       0.08553992 -0.045739457 -0.11706407 0.0007119477
0000e0 40 2b 08 bb 1c b6 23 3d 8a 37 d2 bd c8 77 ce bd
       -0.0020777732 0.039968595 -0.102644995 -0.1008144
0000f0 3a 9a 99 bd 28 ed f6 bd 7c 0a b7 3d 20 c2 8f 3b
       -0.075001195 -0.12056953 0.089375466 0.004387155
000100 00 93 6f bc 98 3c 01 bd 00 fc 89 3a 6a ab 96 3d
       -0.01462245 -0.031551927 0.0010527372 0.073569134
000110 3a 88 bd bd 40 28 1e bc f0 4d d6 bd 06 64 8e bd
       -0.09254499 -0.009653151 -0.10464084 -0.06952672
000120 80 04 f3 3b 38 1d e8 3c 10 c1 cc bd e0 6d 61 bc
       0.007416308 0.028334245 -0.09997761 -0.013759106
000130 c0 d3 2f bd c0 c2 d1 3d 90 12 e9 3d 66 f5 85 3d
       -0.04292655 0.10242224 0.11380494 0.06540947
000140 ec b0 3e bd 5c 6d 8c 3d e4 3e e6 bd 2c a6 8b 3d
       -0.046555445 0.06856796 -0.11242464 0.06818804
000150 0c e5 03 bd ce 36 92 bd 8a ad c9 3d e0 c2 66 bc
       -0.032200858 -0.071393594 0.09847553 -0.014084548
000160 b2 59 d0 3d 84 41 ef 3d c8 ca b1 3d c4 2f 52 bd
       0.10173358 0.11682418 0.086812556 -0.051315084
000170 c0 8c be 3b a0 9b f9 3d b6 a8 cc bd dc 24 d2 bd
       0.0058151186 0.12187886 -0.099931166 -0.102609366
000180 c0 99 62 bc 14 8f dd bd a8 aa f4 bc 48 a8 82 bc
       -0.013830602 -0.108183056 -0.029866531 -0.015949383
000190 00 f7 9f 3d 02 51 80 bd be a1 81 bd d4 8f dd 3d
       0.078107834 -0.06265451 -0.06329678 0.10818449
0001a0 f4 10 9d 3d 92 6c eb bd 80 9d eb bb 50 91 57 3d
       0.07669249 -0.114953175 -0.0071904063 0.052628815
0001b0 00 17 b3 3a 4a 9f 99 3d 98 61 c5 bd e8 82 d6 3c
       0.0013663471 0.07501085 -0.09637755 0.026185468
0001c0 50 f8 31 3d 70 87 64 3d 7a 6a fd 3d 82 e8 98 bd
       0.0434497 0.055793226 0.123738244 -0.07466222
0001d0 80 bf 81 bb a0 b8 f2 bb c8 4d 21 3d 80 f0 66 bb
       -0.003959596 -0.007407263 0.03938082 -0.0035238564
0001e0 0c 7e d0 bd 28 f7 2b 3d f0 01 7c bc 50 42 a0 bd
       -0.101802915 0.041983753 -0.015381321 -0.07825148
0001f0 f0 60 ae 3c 20 86 f3 bd 1e 65 be 3d 6e ed a8 3d
       0.021286458 -0.11890817 0.0929663 0.08248411
000200 72 95 e8 bd ec c7 33 3d b0 0b 0a 3d 94 61 ef 3d
       -0.113566294 0.043891832 0.033702552 0.116885334
000210 fc e8 d3 bd d0 1d 4e 3c 00 26 00 3d fc dc c0 3d
       -0.103471726 0.01258035 0.03128624 0.094171494
000220 48 4f 79 bd 8c 9a 70 bd 8e f8 c3 bd 4c f3 54 bd
       -0.060866624 -0.058741137 -0.095688924 -0.05198984
000230 d0 79 5a bc 38 6b 96 3c 2c 8c 85 3d ec 4a cc bd
       -0.013334706 0.018361673 0.06520876 -0.09975228
000240 04 5d ba bd 48 05 f0 bc d8 bd 79 bd a2 b6 95 bd
       -0.090997726 -0.029299393 -0.060972065 -0.07310225
000250 90 0e 3e bd ec 2c 32 bd a4 e5 d3 3d 58 fa 3d bd
       -0.046400607 -0.043499872 0.10346535 -0.046381325
000260 80 93 47 bc d4 fb cd 3d 28 48 d8 3c a4 32 11 3d
       -0.012181163 0.10057798 0.026401594 0.035448685
000270 98 aa 7c bd e0 88 9a bd ba 50 c4 3d 6c 26 89 3d
       -0.06168613 -0.07545638 0.0958571 0.066967815
000280 32 67 e6 bd 18 dc 84 3c c0 84 d8 bc 42 e0 d2 3d
       -0.11250152 0.01621823 -0.026430488 0.1029668
000290 74 26 7a bd da f5 a2 bd 74 98 37 bd 28 bd 63 bd
       -0.061071828 -0.07957049 -0.044823125 -0.055600315
0002a0 ec cf 18 bd 30 a3 9d 3d c2 8a da bd 20 f6 55 3d
       -0.037307665 0.07697141 -0.10670997 0.052236676
0002b0 e0 52 13 bc 4c 70 75 3d 78 6f 1c 3d 56 04 b7 3d
       -0.008991927 0.059921548 0.038192242 0.08936374
0002c0 36 31 ab bd 08 47 8b 3d 10 4d b6 3c 1e 1f 89 3d
       -0.083589956 0.068006575 0.022253543 0.06695388
0002d0 c0 e5 6f bc 2c fb b4 3d a0 f5 a9 bb 1e 11 d5 3d
       -0.014642179 0.0883697 -0.0051867515 0.104036555
0002e0 e2 67 db 3d 02 15 9d bd 90 82 d2 3c d4 39 98 3d
       0.107131734 -0.076700225 0.025697023 0.07432905
0002f0 8e ec cb 3d 28 92 b2 bd 9e eb e9 3d 08 64 1d 3d
       0.099572286 -0.08719283 0.114218935 0.038425475
000300 82 1e cf 3d e0 eb d3 bc 9a b4 ca 3d c0 c2 89 bb
       0.10113241 -0.02586931 0.09897728 -0.004204124
000310 9c c0 95 bd b2 97 b0 3d 80 95 d8 3b 70 ff 29 3d
       -0.07312128 0.086226836 0.0066096187 0.04150337
000320 c8 7f 29 3d 5c b9 5b 3d a6 66 a7 bd 7e d0 a4 bd
       0.041381627 0.05364357 -0.081738755 -0.08047579
000330 1c 93 59 bd d8 77 01 bd 80 e8 8f 3a 0e cc e4 bd
       -0.05311881 -0.031608433 0.0010979325 -0.11171733
000340 c0 db 88 bd 7e e0 b0 bd b8 98 b5 bc 1c a1 f8 bd
       -0.06682539 -0.086365685 -0.022167549 -0.12140104
000350 06 3e d3 3d 02 b2 c1 3d 2c c0 b9 bd 52 bb df bd
       0.103145644 0.094577804 -0.09069857 -0.109244004
000360 20 90 f4 3d e2 80 e5 3d 1e e3 cd bd 20 d9 75 bd
       0.11941552 0.11206223 -0.10053085 -0.06002152
000370 e0 e0 a5 3d a0 6c 7a 3c 58 36 95 bc 22 d6 fa bd
       0.08099532 0.015284687 -0.01821439 -0.12247874
000380 0a 40 99 3d ae c7 ef bd 7c e2 46 3d 36 2f 95 3d
       0.074829176 -0.11708008 0.048555836 0.072843954
000390 80 fd b0 3b ee 9c bf bd 1c 54 72 bd 40 82 17 bc
       0.0054013133 -0.09356104 -0.059162244 -0.009247363
0003a0 00 a4 de 3a 48 91 8f bd bc 55 2a bd b0 e7 89 3d
       0.0016986132 -0.07010132 -0.04158567 0.06733644
0003b0 f8 5f 87 bd 7e 0d e6 bd 6c fd 15 3d b2 39 cc bd
       -0.066101015 -0.11233042 0.036618635 -0.09971942
0003c0 32 e6 cf bd d4 5f ed bd de 41 8c 3d 60 b2 1c bd
       -0.10151328 -0.115905434 0.06848501 -0.03825605
0003d0 90 4b 0c bd 24 7b d4 3d 94 06 41 bd 26 ff cc 3d
       -0.03425175 0.1037505 -0.047125414 0.10009603
0003e0 46 f7 8c bd 0c 40 14 3d 20 b9 cc bb 3c 4e 73 bd
       -0.06883101 0.036193892 -0.0062476546 -0.059400782
0003f0 80 ff c2 bb a0 7a e8 bc f8 58 bd bc ec f5 fa 3d
       -0.005950868 -0.028378785 -0.023113713 0.12253937

MLP.2.bias f4 [64]
000000 54 14 3d bd 7e 0d fe 3d 08 1d ac bc 00 c0 3e 38
       -0.046161965 0.12404917 -0.021009937 4.5478344e-05
000010 80 5e 53 3b a8 bf 8d bd 3c 6f c8 bd 90 b4 52 bc
       0.0032252371 -0.06921321 -0.09786841 -0.012860432
000020 f0 99 00 3c c8 c2 df bd f0 bd de bc b0 b5 45 3c
       0.007849202 -0.109258235 -0.027190179 0.012067243
000030 78 42 99 3d 20 68 93 3c 18 13 0d 3d e8 31 7f bd
       0.07483381 0.017993987 0.034442037 -0.062303454
000040 b8 64 30 3d c0 a5 c0 bb b4 e9 f4 3d 84 da de 3d
       0.043064803 -0.005879134 0.11958638 0.10881522
000050 c6 4f f4 bd dc 83 52 bd 08 2d 3b bd 18 24 9e bd
       -0.11929278 -0.051395282 -0.045697242 -0.07721728
000060 e8 81 e9 bc 60 b3 3b 3c 36 10 d2 bd ca b8 94 3d
       -0.028504327 0.011456341 -0.10256998 0.07261808
000070 d0 ff 26 3c 9c 8f f4 3d 4e 1f 8b 3d a8 a8 19 bd
       0.010192826 0.11941454 0.0679308 -0.03751436
000080 42 af a1 3d c8 68 46 bd 60 1f f5 bb d8 fc 0f bd
       0.07894756 -0.04843977 -0.007480547 -0.03515324
000090 ae a5 8f bd ee 99 ff 3d c0 a2 4a 3d dc 07 bf 3d
       -0.07014023 0.12480532 0.049471617 0.09327671
0000a0 16 c7 f4 bd 04 b2 b4 3d 20 8d d6 bd e8 ae 58 3d
       -0.11952035 0.08823016 -0.10476136 0.05290118
0000b0 40 1e 8e bb 94 f7 f5 bd b8 45 d8 bd be d2 dd 3d
       -0.004337102 -0.120101124 -0.10560173 0.108312115
0000c0 9e 6a ae bd 7c 73 63 bd 46 03 c5 3d 64 5d 02 3d
       -0.08516429 -0.055530056 0.09619765 0.031827345
0000d0 80 3a ec bc 50 94 82 3d 18 c5 ae 3d 94 03 f7 3d
       -0.028836489 0.063759446 0.085336864 0.12061229
0000e0 10 f7 a2 bc 44 56 ee bd 04 7b fc bd f8 82 e5 bd
       -0.0198932 -0.116375476 -0.12328151 -0.11206621
0000f0 5a d0 98 bd 60 37 e5 3d 00 ac f3 bd 1c b3 aa bd
       -0.07461615 0.111922026 -0.11898041 -0.08334944

MLP.4.weight f4 [18, 64]
000000 0a 39 fe bd 08 cf 51 3d 50 07 c2 bd da d2 d2 bd
       -0.12413223 0.05122283 -0.09474051 -0.10294123
000010 96 a4 f0 bd 54 5b 7b bd 40 4f 21 bc b0 73 82 3d
       -0.11750142 -0.061366394 -0.009845555 0.06369722
000020 7c 56 48 3d 2c 4c 88 bd 7c f8 4c bd f4 53 2f 3d
       0.048910603 -0.06655154 -0.05004166 0.042804673
000030 68 aa e4 bd e2 66 cb bd c8 cd 83 bd d0 bb 39 bc
       -0.11165315 -0.09931733 -0.06435734 -0.011336282
000040 00 c4 32 3b c2 f9 ea 3d c0 5f 1c bd 94 4d 16 3d
       0.002727747 0.11473419 -0.03817725 0.036695078
000050 8a 15 88 3d ba e0 e7 bd 06 e0 87 3d c8 ce 6d bd
       0.06644733 -0.1132216 0.06634526 -0.05805853
000060 c0 6a c1 3d c8 ee ae 3c 9a 18 f5 3d 1c 8c 8e bd
       0.09444189 0.021354094 0.11967583 -0.069603175
000070 04 37 6b 3d fc 75 b3 bd 20 b7 93 3c 18 e3 a4 bd
       0.057425514 -0.08762738 0.018031657 -0.08051127
000080 c0 e7 b6 3d 0a a8 df 3d d6 17 86 3d 34 ff e3 3d
       0.089309216 0.10920723 0.06547515 0.111326605
000090 40 5c d6 bb b8 75 e7 3d 0e 0d a7 3d 28 f8 96 3c
       -0.006541759 0.1130175 0.08156787 0.018428877
0000a0 bc f4 b9 3d b4 1b c8 bd 8c b0 05 bd 08 42 d9 bc
       0.090798825 -0.09770909 -0.03263907 -0.026520744
0000b0 88 e9 5a bd 16 17 d2 bd f0 63 4e 3c c2 19 ff bd
       -0.05344537 -0.102583095 0.012597069 -0.12456085
0000c0 70 cd 73 3d 38 df a2 bc 96 57 9b 3d b0 7e 64 bc
       0.059522092 -0.01988183 0.07585065 -0.01394622
0000d0 60 5b 9c 3d f4 94 7c bd 0c a6 8c bd 70 63 6b 3d
       0.07634616 -0.06166549 -0.068676084 0.057467878
0000e0 a6 bb f1 bd c0 75 a5 3c 04 6c 9e 3d e2 ae 86 bd
       -0.11803369 0.02019775 0.07735446 -0.06576325
0000f0 18 24 c0 bd a0 dd c1 3b f8 cb 56 bd 52 4d dc bd
       -0.09381884 0.0059163123 -0.052440614 -0.10756935
000100 60 a2 86 bb f2 50 eb 3d 38 9d e2 3c 0a 81 e6 3d
       -0.004108712 0.114900485 0.027662858 0.11255081
000110 98 7e 7f bd 06 a1 84 bd c0 60 21 3b f4 62 0d bd
       -0.06237659 -0.06476025 0.0024624318 -0.034518197
000120 9a 2f ad bd 60 f1 ae 3d 0c de b2 bd 5c fe 2e 3d
       -0.08456345 0.085421324 -0.08733758 0.042723045
000130 c0 c4 39 3c a8 6c ca bc 9e 8b 91 3d a0 15 6d bc
       0.011338413 -0.024710014 0.07106708 -0.014470488
000140 6e 5d c2 bd 58 bb 72 3d b0 b1 e6 bc 96 a4 89 3d
       -0.094904765 0.059260696 -0.0281609 0.067208454
000150 8e 62 bd bd 94 f1 51 bd ae 68 f4 bd fa b7 9e 3d
       -0.092473134 -0.051255777 -0.119340286 0.077499345
000160 2a 50 9c 3d 9e 9a a9 3d c8 ab 7a 3d 00 f4 04 b9
       0.076324776 0.08281444 0.06119898 -0.00012679398
000170 24 9e 8e 3d 68 38 4e 3d 74 aa 67 bd 60 05 7f bd
       0.06963757 0.050346762 -0.05655904 -0.062260985
000180 f4 19 e0 3d 66 9a fd 3d 14 dc 98 bd 60 77 a4 bd
       0.1094245 0.12382965 -0.074638516 -0.080305815
000190 7c b1 60 bd 54 16 00 3d fc a8 63 3d 80 9e a8 bb
       -0.054856762 0.031271294 0.055581078 -0.005145848
0001a0 70 7d f8 bd 20 d0 f8 bd 98 8a dd 3c 00 7c 25 39
       -0.121333 -0.12149072 0.027043626 0.0001578182
0001b0 46 27 d0 3d b0 d3 27 bd 20 72 01 bd b4 19 d1 bd
       0.10163741 -0.040973365 -0.03160298 -0.102099806
0001c0 10 41 75 3c 80 53 54 bc 92 89 a3 bd b6 0f f6 3d
       0.014969125 -0.012959361 -0.07985224 0.120147154
0001d0 58 d3 b9 3c a2 32 ad bd 98 80 e1 bd e0 11 4d bd
       0.022683784 -0.08456923 -0.110108554 -0.050065875
0001e0 ac 59 01 3d e0 24 d8 bb a0 15 06 3c 9c 05 0d 3d
       0.03157966 -0.0065961927 0.008183867 0.034429178
0001f0 60 71 7c 3d f0 d8 36 3c 04 6d c1 bd 58 3a a4 3c
       0.06163156 0.01116012 -0.09444621 0.020047352
000200 e0 2c 08 3d 44 7c 72 3d 94 40 37 3d 64 41 df bd
       0.03324592 0.05920054 0.04473932 -0.10901144
000210 a0 09 d1 3c cc 9f 1b 3d f0 1d 76 bd a4 46 a8 3d
       0.025517285 0.03799419 -0.060087144 0.08216599
000220 80 50 53 bb f6 8d ca bd 2c 1f 52 3d 94 2e a7 bd
       -0.0032244027 -0.09890358 0.05129926 -0.08163181
000230 ee ca bc 3d 00 0f a1 ba 80 52 f0 ba 28 55 61 bd
       0.09218393 -0.0012287796 -0.0018335134 -0.055012852
000240 08 a3 18 bd a8 df aa bc a0 8b b4 3c 00 00 2d bb
       -0.037264854 -0.0208586 0.022039235 -0.0026397705
000250 78 57 4b 3d a4 34 05 3d 20 98 a2 bb a0 13 dc bc
       0.049643964 0.032520905 -0.0049619824 -0.026864827
000260 8a 8d b6 3d b0 8a 12 bc 08 4d a4 3c f0 6c 2b 3c
       0.08913715 -0.0089441985 0.020056263 0.010462984
000270 20 34 95 bc 9c 38 1e 3d 30 c7 c9 bd ac 61 fb 3d
       -0.018213332 0.038628206 -0.09852445 0.12274489
000280 f4 1d d3 bd 5c 65 85 3d a4 88 7e bd 1c b6 2c 3d
       -0.103084475 0.065134734 -0.06214203 0.04216586
000290 70 29 8d 3c 70 cf e9 bd 98 84 ad bc 8c fc 68 3d
       0.017231673 -0.11416519 -0.02118139 0.056881472
0002a0 50 2c 78 3d 48 37 f3 bc d4 fd 26 bd fe 3f 9a bd
       0.060589135 -0.029689446 -0.040769413 -0.07531737
0002b0 ea 9f a2 3d 9a 86 ad bd a2 4e ee 3d 8c d4 50 bd
       0.079406574 -0.08472939 0.11636092 -0.05098395
0002c0 d0 2a c0 bc 00 e8 50 bd f4 d7 a3 bd 00 d2 1e bb
       -0.023457915 -0.051002502 -0.08000174 -0.0024234056
0002d0 86 32 a7 bd f8 ab 49 3d 00 49 df bd 3c 8e ba 3d
       -0.081639335 0.049236268 -0.109025955 0.0910916
0002e0 6e d8 e9 3d e0 5e 59 bc f0 34 ba bd f4 16 5a 3d
       0.11418234 -0.013267249 -0.09092128 0.053244546
0002f0 74 54 ca bd e2 a3 c3 3d 2c 13 a4 3d 80 86 60 bc
       -0.098793894 0.095527425 0.08011469 -0.013703942
000300 28 37 b8 3d 8c d2 af bd 30 ca 4f bc 60 99 bb bb
       0.08994895 -0.085850805 -0.012682483 -0.005725071
000310 44 0d 87 bd f0 90 70 3c fa c6 f0 bd b4 a6 be 3d
       -0.06594327 0.014682993 -0.11756702 0.0930914
000320 00 d8 05 b9 fa 5d dc bd d8 c2 cc 3d c6 ed db bd
       -0.00012764335 -0.10760112 0.09998101 -0.10738711
000330 34 2e dd bd b8 7b a2 3d 42 0f f6 3d 2e 39 c1 bd
       -0.10799828 0.07933754 0.12014629 -0.09434734
000340 d4 32 f2 3d 94 24 96 3d 30 05 5d 3c 90 64 0f bc
       0.11826101 0.073311955 0.013490006 -0.008752003
000350 ae 53 c8 3d a0 3d 2a 3d 88 78 e4 bc d4 f5 fb bd
       0.09781586 0.041562676 -0.027889505 -0.12302747
000360 54 4d 45 bd 10 b1 03 bc fc 79 f4 bd fa 4b ea 3d
       -0.04816945 -0.00803782 -0.11937329 0.11440273
000370 80 af ab 3b f8 8c f7 bc f6 3a 9b 3d f2 f5 9f bd
       0.005239427 -0.030218586 0.07579605 -0.07810582
000380 38 2c f5 3c 78 77 82 3d 8c e5 b9 3d 34 f9 a7 bd
       0.029928312 0.06370443 0.09076986 -0.082018286
000390 74 1c 62 3d 80 03 ed ba a0 ee 29 3d 40 1f 7d 3b
       0.055202916 -0.0018082708 0.041487336 0.0038623363
0003a0 30 40 7b bc 3e 83 de 3d b0 e2 3b 3c 10 ba 63 bd
       -0.015335128 0.10864876 0.011467621 -0.055597365
0003b0 70 6a ea bd 90 3d 56 bc 6e 90 b9 3d 54 97 b2 3d
       -0.114460826 -0.013076201 0.09060751 0.0872027
0003c0 b6 6a e0 bd 88 ed d2 bc 40 1e 39 bc 7a 66 e5 bd
       -0.109578535 -0.02574803 -0.011298716 -0.112011865
0003d0 4a ed be bd 14 4c 07 3d a2 5d ac 3d 80 4c 99 ba
       -0.09322603 0.033031538 0.084162965 -0.0011695772
0003e0 b0 ee cf bc 64 e1 f2 bd 20 e1 a4 3b 0e 2b fb bd
       -0.02538237 -0.11859396 0.00503172 -0.122640714
0003f0 20 97 9c 3c a8 a3 08 3d 48 e7 19 3d 54 08 5a 3d
       0.01911503 0.0333592 0.037574083 0.0532306

MLP.4.bias f4 [18]
000000 98 1d c2 bd 7e 09 b6 bd 1c 96 71 3d 34 9c c5 bd
       -0.09478301 -0.08888529 0.058981046 -0.09648934
000010 e0 67 23 3c a2 69 b2 bd 58 c1 88 bc c0 18 92 bc
       0.009973496 -0.08711554 -0.016693756 -0.017834067
000020 44 d4 6d 3d e0 dd 10 bc 10 10 d2 bd 50 25 f5 3c
       0.05806376 -0.008841962 -0.1025697 0.029925019
000030 da df aa 3d 46 e9 9e bd e4 71 c3 3d 00 a2 67 3b
       0.083434775 -0.07759337 0.09543207 0.0035344362
000040 80 7e 3b bc 0c 16 ab 3d
       -0.011443734 0.083538145
