planner_zoo/model_for_mbrl_eps200.pth (torch, 42383 bytes, 6 tensors)

MLP.0.weight f4 [64, 72]
0.0041966885 0.018286012 -0.08356869 -0.044118844 0.03362917 -0.09040908 -0.10437719 -0.031109922
0.033867247 -0.02283758 -0.10879801 0.09219196 0.0033200309 -0.091481775 0.0014708713 -0.051265232
-0.07174295 -0.099886924 0.11464577 0.0045105293 -0.042438872 0.01570145 -0.016572334 0.06701132
-0.05930955 -0.08347398 0.11121825 0.09320741 -0.06341848 0.08329331 0.07683312 0.013897695
0.11542343 -0.042269595 0.036186464 0.0019252226 -0.052459285 0.024211876 -0.07616117 -0.046698064
0.022588335 -0.066004284 0.08073201 0.0757393 -0.084464684 -0.026538886 -0.06009677 -0.10594419
0.06956912 -0.0005787462 -0.11603396 -0.116027124 -0.034357354 -0.00300809 0.024007209 0.024397068
0.10046693 0.0353181 0.098078884 -0.045371123 -0.05489689 0.03129763 0.0915012 0.002510026
0.04688283 0.113761775 -0.019447908 -0.037038118 0.024969034 0.10593162 0.09587877 0.076212056
-0.06779426 -0.08748743 -0.014340997 -0.04740742 0.030490614 0.06138707 0.1003632 -0.027760051
-0.019071214 0.07783791 0.03502143 0.07594209 0.013143502 0.05664655 -0.058290903 0.06448623
-0.03657265 0.0981478 0.04908765 -0.03883104 0.09292678 0.09064212 -0.09881063 -0.015479088
0.04103356 0.11614985 0.016656376 0.021107532 -0.03119395 -0.07012513 0.05045601 -0.09233134
0.011580147 0.053420536 0.016563453 -0.032932006 0.04692968 -0.039655603 0.000119529665 0.033218853
-0.023388267 0.09613552 -0.06492747 0.045150436 -0.0008189529 -0.07685465 -0.004092686 -0.06568454
0.026628517 -0.088309236 0.06890438 0.0075079426 0.02901315 0.0010127872 0.115607984 -0.06434019
-0.015143447 0.058178954 -0.033994436 0.08017524 -0.08317949 0.033373274 0.06609575 -0.011828288
0.009023525 0.08579851 0.10234422 -0.019251123 0.09952653 0.040210582 0.095346816 -0.06879625
0.06879785 0.09503532 0.010213383 -0.06436832 0.035290055 0.10494519 -0.034289464 -0.02473145
-0.008250132 0.035602666 -0.0075951964 0.018115409 0.06710745 0.043148972 -0.03578175 -0.055930372
0.105736546 -0.10535585 -0.104798675 -0.018403701 -0.107059754 0.11245792 0.075482346 0.06044496
-0.03559286 0.049115054 0.11758391 0.044963993 -0.102471 0.115062706 -0.00033313036 0.04021368
-0.10282117 -0.027461372 -0.10752765 -0.053831503 0.10178023 -0.019968122 -0.0787953 0.085091405
-0.035257258 -0.052617155 -0.018346258 -0.03538891 -0.078811444 0.07745617 0.090687744 0.008817531
-0.07994199 0.09021301 0.035569288 -0.07503775 0.10296736 -0.08661337 -0.114257425 -0.005306527
0.094983466 -0.042323485 -0.057797983 0.07953041 0.07160663 -0.04528576 -0.019229531 0.04524415
-0.028582893 -0.003602013 -0.075383306 -0.020411536 0.09679187 0.093790464 0.09540426 -0.058753774
-0.0014446825 0.062493317 0.041601233 0.08041283 -0.07990034 -0.10978092 -0.0398814 -0.09718833
-0.1041503 -0.06044284 0.10091766 -0.09879316 -0.0030691326 -0.070307255 0.0788277 -0.039631933
-0.042819977 -0.018709801 -0.060151152 0.06602725 0.11506786 -0.09726137 -0.058726773 0.11295406
0.07498198 -0.06821196 0.06774307 0.035572506 -0.030942827 0.11238218 0.10843036 -0.0465146
0.0046361685 -0.055884656 -0.00035496056 -0.09216916 0.0058884323 0.059636466 0.09615976 0.020998217
00000000: 6084 893b 8ccc 953c 1026 abbd f6b5 34bd
00000010: bebe 093d 6528 b9bd b5c3 d5bd 3cda febc
00000020: 62b8 0a3d e015 bbbc 7ed1 debd 23cf bc3d
00000030: e094 593b cc5a bbbd 40ca c03a 7efb 51bd
00000040: f8ed 92bd 8491 ccbd 67cb ea3d 10cd 933b
00000050: 62d4 2dbd 54a0 803c b4c2 87bc 3b3d 893d
00000060: 92ee 72bd 68f4 aabd 65c6 e33d 87e3 be3d
00000070: 8ce1 81bd af95 aa3d af5a 9d3d 28b3 633c
00000080: 1f63 ec3d e222 2dbd 4238 143d c057 fc3a
00000090: 8cdf 56bd fc57 c63c 63fa 9bbd 7846 3fbd
000000a0: 2c0b b93c 412d 87bd d356 a53d 351d 9b3d
000000b0: d2fb acbd 1468 d9bc 0828 76bd 44f9 d8bd
000000c0: 417a 8e3d 00b7 17ba 36a3 edbd a19f edbd
000000d0: 4cba 0cbd 6023 45bb c4aa c43c 5cdc c73c
000000e0: 9bc1 cd3d b6a9 103d 95dd c83d 12d7 39bd
000000f0: 90db 60bd f231 003d fb64 bb3d 407f 243b
00000100: 3608 403d effb e83d 3851 9fbc 48b5 17bd
00000110: dc8b cc3c adf2 d83d 175c c43d 1115 9c3d
00000120: b8d7 8abd 9c2c b3bd 80f6 6abc 482e 42bd
00000130: 74c7 f93c 0271 7b3d 398b cd3d 0c69 e3bc
00000140: 3c3b 9cbc 7b69 9f3d a272 0f3d 8787 9b3d
00000150: d857 573c 3606 683d 71c2 6ebd 5b11 843d
00000160: 34cd 15bd b701 c93d 2210 493d 4c0d 1fbd
00000170: 6550 be3d 93a2 b93d 3a5d cabd 009c 7dbc
00000180: ce12 283d f9df ed3d f472 883c b4e9 ac3c
00000190: 748a ffbc c49d 8fbd f6aa 4e3d 3718 bdbd
000001a0: a8ba 3d3c 7ecf 5a3d 14b0 873c b6e3 06bd
000001b0: 5639 403d ea6d 22bd 00ac fa38 7e10 083d
000001c0: c098 bfbc b3e2 c43d b2f8 84bd aaef 383d
000001d0: 00af 56ba f965 9dbd f01b 86bb 9e85 86bd
000001e0: 0c24 da3c 79db b4bd bd1d 8d3d 3005 f63b
000001f0: fcac ed3c 80bf 843a e1c3 ec3d cac4 83bd
00000200: 381c 78bc 0e4d 6e3d c03d 0bbd eb32 a43d
00000210: 025a aabd 6ab2 083d 355d 873d 70cb 41bc
00000220: 68d7 133c 21b7 af3d d999 d13d 88b4 9dbc
00000230: 91d4 cb3d dab3 243d 3145 c33d 0ce5 8cbd
00000240: e3e5 8c3d e1a1 c23d 0856 273c 8ad3 83bd
00000250: 4e8c 103d 81ed d63d 1c73 0cbd 9c99 cabc
00000260: 902b 07bc 1ad4 113d 20e1 f8bb c466 943c
00000270: a16f 893d fabc 303d e28f 12bd 3f17 65bd
00000280: 678c d83d cfc4 d7bd b0a0 d6bd 5cc3 96bc
00000290: 2542 dbbd 5750 e63d 7d96 9a3d 2295 773d
000002a0: d2c9 11bd de2c 493d d5cf f03d 2a2c 383d
000002b0: 51dc d1bd ffa5 eb3d 00a8 aeb9 1ab7 243d
000002c0: e893 d2bd acf6 e0bc 7537 dcbd 6c7e 5cbd
000002d0: 2772 d03d 3094 a3bc 6e5f a1bd 6744 ae3d
000002e0: ea69 10bd 1685 57bd e44a 96bc f6f3 10bd
000002f0: e567 a1bd 57a1 9e3d 7fba b93d 6877 103c
00000300: a0b8 a3bd 99c1 b83d 1ab1 113d 64ad 99bd
00000310: 8de0 d23d 5a62 b1bd ccff e9bd 60e2 adbb
00000320: b186 c23d 645b 2dbd 94bd 6cbd d7e0 a23d
00000330: 7fa6 923d 907d 39bd 4087 9dbc ee51 393d
00000340: ac26 eabc c00f 6cbb 9062 9abd 1836 a7bc
00000350: d13a c63d 3715 c03d 4f63 c33d cca7 70bd
00000360: 805b bdba fef8 7f3d 0e66 2a3d 7baf a43d
00000370: caa2 a3bd d2d4 e0bd ae5a 23bd ad0a c7bd
00000380: c14c d5bd e992 77bd ebad ce3d 1154 cabd
00000390: 8023 49bb 40fd 8fbd 6b70 a13d 1855 22bd
000003a0: 0064 2fbd 4c45 99bc 0e61 76bd 4b39 873d
000003b0: b3a8 eb3d f830 c7bd 7c8b 70bd 7554 e73d
000003c0: 2790 993d b6b2 8bbd e1bc 8a3d 7ab4 113d
000003d0: d07b fdbc a128 e63d bd10 de3d 1886 3ebd
000003e0: 00eb 973b 4fe7 64bd 001a bab9 2fc3 bcbd
000003f0: c0f3 c03b 5e45 743d 69ef c43d 7404 ac3c

MLP.0.bias f4 [64]
-0.106319666 0.015463658 -0.0716702 -0.04861646 0.069944076 -0.06891091 0.048258655 0.056036033
0.083128296 -0.030776277 0.07993881 0.08954736 0.000444144 0.09882643 0.09101104 0.071078844
0.009567566 -0.097059555 -0.0076376125 0.057106115 -0.08647676 -0.07302002 -0.09156749 0.0013743117
0.06351424 0.021043502 0.035621606 -0.027450718 0.005067162 0.05088397 -0.06653319 -0.06958807
0.061157517 0.013901405 -0.11458964 -0.061478764 0.04367859 -0.020559542 -0.007791534 0.04323771
0.07319727 -0.04736823 0.0831212 -0.021076038 0.023957513 -0.08258279 -0.04958485 -0.05026582
0.07170748 -0.031767666 -0.07955618 -0.11045096 -0.024763294 -0.10761282 0.04597398 -0.040498935
-0.07832566 0.11643528 -0.10147757 -0.023049928 0.031194203 -0.03737417 0.062474452 -0.11335453
00000000: 20be d9bd 485b 7d3c d3c7 92bd 0e22 47bd
00000010: d73e 8f3d 2a21 8dbd deaa 453d 0a86 653d
00000020: 2b3f aa3d 881e fcbc f5b6 a33d 9b64 b73d
00000030: 00dc e839 8365 ca3d ff63 ba3d c991 913d
00000040: 48c1 1c3c 29c7 c6bd f044 fabb 1ae8 693d
00000050: ba1a b1bd 858b 95bd bc87 bbbd 4022 b43a
00000060: c113 823d 6c63 ac3c f6e7 113d 54e0 e0bc
00000070: 700a a63b b66b 503d 8e42 88bd 3184 8ebd
00000080: 4e80 7a3d b8c2 633c f9ad eabd 28d1 7bbd
00000090: 52e8 323d 7c6c a8bc 2050 ffbb 061a 313d
000000a0: 73e8 953d 3005 42bd 733b aa3d a8a7 acbc
000000b0: 8c42 c43c 2a21 a9bd 7c19 4bbd 88e3 4dbd
000000c0: 5fdb 923d d01e 02bd 5aee a2bd 1d34 e2bd
000000d0: 64dc cabc 1c64 dcbd 364f 3c3d 36e2 25bd
000000e0: 3469 a0bd 9f75 ee3d 79d3 cfbd 34d3 bcbc
000000f0: fc8a ff3c a815 19bd 36e5 7f3d 6b26 e8bd

MLP.2.weight f4 [64, 64]
-0.04180488 -0.079249635 -0.108429 0.1166061 0.07666433 -0.06785597 0.10150808 -0.08743003
-0.104904085 0.07107255 0.0032369047 0.052106246 0.094976395 0.04402721 -0.050788417 -0.040454835
-0.048648775 0.12138179 0.0929468 0.04532413 -0.068581775 -0.12125231 -0.08151184 -0.04653859
0.020290643 0.02636917 -0.102543846 0.11045134 0.08143444 -0.07259704 0.037828848 0.023688465
-0.069794446 0.07906036 0.07677609 0.00024057925 -0.04434742 0.010731265 0.061885297 -0.08688304
0.08142087 -0.037287578 -0.10503921 0.0013458878 0.025384262 -0.055598304 0.08506809 0.07719046
-0.050710335 0.03256555 -0.10414742 -0.050580427 0.019047976 -0.12033707 -0.027886793 -0.10993329
-0.076597035 -0.08853902 0.07875265 0.063293636 0.014969796 0.09255786 0.041823074 -0.037625432
-0.007422 -0.0072487444 0.016987562 0.0847595 -0.088508844 -0.09395823 -0.036893845 -0.064061
-0.015644133 -0.054441437 -0.09902659 0.10171552 0.036269426 -0.022948608 0.015995383 -0.034604132
-0.09203453 0.056902632 0.0122637 0.020464242 -0.08163807 -0.085168004 0.06568506 0.09470421
0.024491906 -0.019000635 -0.081037804 -0.08765446 -0.03353168 -0.071441144 -0.08888252 0.0032666475
0.08945532 0.010683686 0.095573336 0.054278582 0.08016428 0.084660515 -0.049084693 -0.107507035
0.117571175 -0.12393525 0.09508596 0.028285101 0.058895767 -0.08633655 0.0054870397 0.0514794
-0.10203028 0.04921873 0.087928295 -0.10326141 0.08477846 -0.0733165 0.028014466 0.09112804
0.019506663 0.05472605 -0.116958395 -0.010531947 0.0046649724 0.04157628 0.00202021 -0.0026048422
0.062254503 0.01821892 -0.021610603 -0.06657095 -0.103900686 -0.06585671 0.03349437 0.08060768
-0.096377656 -0.04794523 0.03582245 0.073112816 -0.082135215 0.10474488 0.066734 0.0015383959
-0.011013359 -0.07563171 -0.01262635 -0.08473618 -0.020594656 -0.042132035 0.043828458 -0.051930666
0.10820991 0.034010798 0.018945187 -0.03727503 0.11082859 -0.05310148 -0.0052049905 -0.08297038
-0.1010115 -0.119377255 0.012109742 0.02429223 -0.0630846 0.09167607 0.054957017 -0.114282995
0.03704527 -0.07157472 -0.11631 -0.013191879 0.03603159 -0.114398316 0.027834624 -0.09548813
0.114769146 -0.0008059144 0.05586283 -0.037497014 -0.11621429 -0.107679516 -0.023113847 -0.009379402
-0.11830297 0.10137369 0.0011661202 -0.11449526 0.024656653 0.077504575 0.06374487 0.05570951
0.091542035 0.11484738 0.027913153 0.010258108 0.045266822 -0.015492961 0.066019475 -0.03111434
0.087377936 -0.09205575 0.07393119 0.120705396 -0.035225242 -0.09619379 -0.10341315 0.08280702
-0.09406343 -0.06117402 -0.07836872 0.07335611 0.1029505 -0.0511598 0.065469965 0.061142206
0.11406641 0.09412786 0.09527156 0.09811567 -0.05531463 0.055073634 0.097270444 0.036700293
-0.03953126 -0.12324853 -0.0717614 0.009080619 0.11313683 0.03812042 -0.09264645 0.036623716
-0.00736998 0.07140906 -0.07331851 -0.10748814 0.07864252 0.09634577 0.059959814 0.12322594
-0.07148452 -0.023319885 -0.08267477 -0.023215577 -0.0892864 0.04536003 -0.07427244 -0.05371642
-0.09559363 -0.075483635 0.06347449 -0.011386707 0.04716921 -0.051239043 -0.053190738 -0.07532555
00000000: 983b 2bbd a24d a2bd 0610 debd 2ecf ee3d
00000010: 3002 9d3d 12f8 8abd 78e3 cf3d 840e b3bd
00000020: f4d7 d6bd 7c8e 913d 4022 543b 5c6d 553d
00000030: fc82 c23d e055 343d 8407 50bd f8b3 25bd
00000040: f043 47bd 0497 f83d e45a be3d cca5 393d
00000050: 9a74 8cbd 2253 f8bd aeef a6bd 409f 3ebd
00000060: 9038 a63c 2804 d83c 8202 d2bd 5034 e23d
00000070: 1ac7 a63d c2ad 94bd 6cf2 1a3d 500e c23c
00000080: 64f0 8ebd 66ea a13d c83c 9d3d 0044 7c39
00000090: a4a5 35bd 30d2 2f3c 707b 7d3d bcef b1bd
000000a0: fcbf a63d dcba 18bd cc1e d7bd 8068 b03a
000000b0: a8f2 cf3c 0cbb 63bd 2e38 ae3d 0816 9e3d
000000c0: a4b5 4fbd 7463 053d 3e4b d5bd 6c2d 4fbd
000000d0: 800a 9c3c 4873 f6bd d872 e4bc b424 e1bd
000000e0: e8de 9cbd f253 b5bd 1249 a13d 18a0 813d
000000f0: e043 753c fa8e bd3d ac4e 2b3d 201d 1abd
00000100: 4034 f3bb e086 edbb 8029 8b3c 6496 ad3d
00000110: 2044 b5bd 2c6d c0bd 001e 17bd 6a32 83bd
00000120: 2028 80bc fcfd 5ebd 74ce cabd 3a50 d03d
00000130: 408f 143d b8fe bbbc c008 833c 10bd 0dbd
00000140: 9a7c bcbd bc12 693d b0ed 483c a0a4 a73c
00000150: dc31 a7bd 906c aebd e485 863d 48f4 c13d
00000160: 40a3 c83c 38a7 9bbc 26f7 a5bd 2e84 b3bd
00000170: 8458 09bd bc4f 92bd 0a08 b6bd 4015 563b
00000180: 5a34 b73d a00a 2f3c f4bb c33d 3853 5e3d
00000190: 2c2d a43d 7e62 ad3d 080d 49bd a62c dcbd
000001a0: 28c9 f03d c4d1 fdbd 6ebc c23d 28b6 e73c
000001b0: b03c 713d 38d1 b0bd a0cc b33b 10dc 523d
000001c0: 40f5 d0bd 9499 493d c013 b43d b87a d3bd
000001d0: 54a0 ad3d f626 96bd 987e e53c 56a1 ba3d
000001e0: 70cc 9f3c 6c28 603d e287 efbd 308e 2cbc
000001f0: a0dc 983b e44b 2a3d 8065 043b 00b6 2abb
00000200: 94fe 7e3d d83f 953c b808 b1bc 5a56 88bd
00000210: e2c9 d4bd e2df 86bd 6431 093d a415 a53d
00000220: a661 c5bd 3862 44bd 90ba 123d 2cbc 953d
00000230: 8236 a8bd 7c84 d63d d6ab 883d 00a4 c93a
00000240: 6071 34bc cce4 9abd c0de 4ebc 2a8a adbd
00000250: 20b6 a8bc a492 2cbd 7885 333d 40b5 54bd
00000260: 289d dd3d e84e 0b3d f032 9b3c b4ad 18bd
00000270: 1afa e23d f080 59bd a08e aabb 60ec a9bd
00000280: 1edf cebd 107c f4bd f067 463c 8000 c73c
00000290: 8032 81bd aac0 bb3d 9c1a 613d 340d eabd
000002a0: c8bc 173d c495 92bd f033 eebd c022 58bc
000002b0: dc95 133d aa49 eabd 7005 e43c 488f c3bd
000002c0: 160c eb3d 0044 53ba 6cd0 643d 7896 19bd
000002d0: c201 eebd 1487 dcbd 4059 bdbc 10ac 19bc
000002e0: d448 f2bd 029d cf3d 80d8 983a 7e7c eabd
000002f0: c0fc c93c b8ba 9e3d ac8c 823d a82f 643d
00000300: 647a bb3d 1a35 eb3d 20aa e43c a011 283c
00000310: b469 393d 30d6 7dbc 3835 873d 80e3 febc
00000320: 34f3 b23d ba87 bcbd 3c69 973d 6434 f73d
00000330: 5848 10bd 4001 c5bd 46ca d3bd ba96 a93d
00000340: 54a4 c0bd 9c91 7abd c87f a0bd ba3b 963d
00000350: b6d7 d23d f08c 51bd 1e15 863d 4070 7a3d
00000360: a69b e93d 1cc6 c03d bc1d c33d def0 c83d
00000370: 9891 62bd e494 613d ba35 c73d 0c53 163d
00000380: 88eb 21bd ba69 fcbd a4f7 92bd e0c6 143c
00000390: 48b4 e73d 2824 1c3d 6cbd bdbd c002 163d
000003a0: e07f f1bb ea3e 923d 0428 96bd be22 dcbd
000003b0: 540f a13d ee50 c53d 6c98 753d e25d fc3d
000003c0: 7a66 92bd 5809 bfbc 6451 a9bd 982e bebc
000003d0: cadb b6bd 70cb 393d 261c 98bd c005 5cbd
000003e0: 98c6 c3bd 2a97 9abd eafe 813d 508f 3abc
000003f0: 8034 413d 08e0 51bd 88de 59bd 4844 9abd

MLP.2.bias f4 [64]
0.016567186 0.03696406 -0.10672416 0.044724897 0.029925808 -0.022463694 -0.11931053 -0.060186774
0.027322173 -0.08721502 0.048787802 0.103284955 0.11548996 -0.048817128 -0.05593154 -0.03380622
-0.07115808 0.014611155 -0.090749845 0.015535563 0.044833526 -0.12269355 -0.048403263 -0.035047576
0.023624241 0.108344704 0.038670763 0.11757387 0.07653287 0.06114903 0.07203291 -0.12352939
0.086094424 0.12382725 0.054472744 -0.0018349588 -0.103640065 0.10256904 0.0072416067 0.057094887
0.06635605 -0.058068633 0.055146173 0.06312269 0.024834588 0.07298884 0.01550214 0.12302141
-0.07543619 -0.04025364 -0.019138724 0.03197159 0.07409693 -0.033532843 -0.036889985 -0.041437626
-0.022522911 0.109217405 -0.09438175 0.040858775 0.07893193 0.064456865 -0.009300217 -0.07871875
00000000: e8b7 873c a067 173d 3292 dabd 7431 373d
00000010: f826 f53c c805 b8bc 1459 f4bd 6886 76bd
00000020: c0d2 df3c ca9d b2bd b8d5 473d 1087 d33d
00000030: 0086 ec3d 78f4 47bd 7818 65bd 6478 0abd
00000040: 54bb 91bd a063 6f3c 0edb b9bd e088 7e3c
00000050: 5ca3 373d c246 fbbd 8042 46bd 0c8e 0fbd
00000060: a087 c13c d4e3 dd3d 3c65 1e3d 92ca f03d
00000070: 44bd 9c3d 6877 7a3d fe85 933d fafc fcbd
00000080: 4652 b03d 2499 fd3d d01e 5f3d 0083 f0ba
00000090: 3e41 d4bd b80f d23d 004b ed3b 54dc 693d
000000a0: aee5 873d 60d9 6dbd f4e0 613d 7846 813d
000000b0: e871 cb3c 2c7b 953d b0fc 7d3c a6f2 fb3d
000000c0: 4a7e 9abd 00e1 24bd d0c8 9cbc a4f4 023d
000000d0: 22c0 973d bc59 09bd f419 17bd 80ba 29bd
000000e0: f881 b8bc 60ad df3d 384b c1bd 885b 273d
000000f0: 10a7 a13d f601 843d f05f 18bc 4c37 a1bd

MLP.4.weight f4 [18, 64]
-0.019109786 0.05746302 0.12009707 0.057745323 0.11354692 0.05618781 -0.050010487 -0.11611457
0.10136758 0.09235786 0.058414474 -0.0043513924 0.02908872 -0.0055795163 0.030619428 0.07455483
0.029639274 -0.038549587 -0.039963186 -0.09197211 0.010658234 0.119722694 -0.116384 0.092718065
0.06399521 -0.054690346 0.0005276799 0.010498852 -0.10457973 0.10321224 0.10372156 -0.10471439
0.06906873 0.08845422 -0.067060694 -0.038787797 -0.11660428 0.037401676 -0.07039119 -0.08652933
-0.044742614 -0.11026071 -0.11633876 -0.091447115 0.071600884 -0.09223224 0.05899854 0.0655684
0.040060014 -0.04151301 0.04534775 0.035066023 -0.007976517 0.073388174 0.09037739 -0.058980867
0.0686879 0.09479003 -0.053291366 -0.030557886 -0.014278904 0.012099862 0.09424062 0.07508609
0.07091834 -0.07466842 0.0898236 -0.052580282 0.10472059 -0.043679446 0.09092888 -0.09717533
0.08663334 -0.04372205 0.011086121 -0.013010204 0.018906146 0.01942058 0.052773133 0.025498971
-0.05248083 -0.0019100308 -0.033955947 -0.055878446 -0.04068367 -0.042635754 -0.009770095 -0.013711095
-0.045491174 0.053995177 -0.0025491863 -0.09624675 0.06668699 0.10024053 0.038264245 -0.0757096
0.059020564 0.031913206 0.10658316 0.022579134 -0.095313266 -0.11101593 -0.10863078 -0.11788812
0.07699609 0.04689206 0.03391947 0.051799968 0.11065292 -0.01635085 -0.01413101 0.013173431
-0.05055812 0.061400756 0.037840992 -0.038836658 0.05673629 -0.06125337 0.026988134 -0.0309062
0.124714136 0.07072346 -0.0703588 0.03747365 0.05277665 0.0619148 -0.058235675 0.031881258
0.04141383 -0.10854916 0.123529 0.045758188 -0.03590837 -0.07906291 0.09198879 0.05831708
-0.027220473 -0.104786545 -0.091606215 0.08249326 0.08137274 -0.023574397 -0.1096804 0.06737541
-0.07633525 -0.0172984 -0.080513194 0.05621074 -0.048569143 -0.10274342 0.07438125 0.034667864
-0.04928738 0.060214967 0.006725922 -0.015774071 -0.045187622 -0.115103334 -0.04325016 -0.07945314
0.039155915 0.02239336 0.037952095 -0.029662043 -0.030126095 -0.057485104 -0.06197828 0.12266509
0.07747048 0.117988914 -0.04127094 0.09035613 0.07688396 0.0034662634 -0.061924115 0.06700501
-0.091929585 0.068981335 0.04114078 -0.017512038 0.11453691 0.022950187 -0.056279123 0.09082219
0.020782784 -0.10242048 -0.07652457 -0.076059535 0.07420325 -0.033635467 0.12206207 -0.12103516
0.015903652 -0.08665764 -0.11337371 -0.105593905 0.09635109 -0.03182307 0.11861427 0.06021458
0.090121925 -0.062636346 -0.03342375 -0.041490197 -0.008590609 0.07334623 0.01704447 -0.084820345
-0.12344062 -0.12359187 0.041264743 0.023205742 -0.121545404 -0.09979625 0.060592264 0.048539683
-0.083822325 -0.029878467 -0.10999949 -0.08525175 -0.079691246 0.12319593 0.009706274 -0.034856707
0.09407538 0.04495597 -0.02189231 -0.028201982 0.09749265 0.049528345 -0.011061832 -0.04296182
0.03906782 -0.050166577 0.00081151724 -0.06749819 0.05017069 -0.09948112 -0.07631698 -0.037117183
-0.09306519 0.0720994 -0.0353256 -0.04551238 -0.0719444 0.0016590804 -0.03957905 -0.122780725
-0.029534832 -0.09868829 -0.1026105 -0.041635096 -0.086199 0.021769136 -0.06718117 -0.09573877
00000000: 208c 9cbc 585e 6b3d 74f5 f53d 5c86 6c3d
00000010: 4a8b e83d 3025 663d ccd7 4cbd 7acd edbd
00000020: ce99 cf3d 1e26 bd3d 0444 6f3d 2096 8ebb
00000030: 784b ee3c 60d4 b6bb 98d5 fa3c 34b0 983d
00000040: 10ce f23c 2ce6 1dbd 70b0 23bd e05b bcbd
00000050: e09f 2e3c 2c31 f53d bc5a eebd f8e2 bd3d
00000060: ec0f 833d fc02 60bd 0054 0a3a 6003 2c3c
00000070: e62d d6bd f060 d33d f86b d43d 8074 d6bd
00000080: e873 8d3d 7c27 b53d 1e57 89bd f4df 1ebd
00000090: 3ace eebd 8032 193d 4229 90bd 4a36 b1bd
000000a0: 0844 37bd 5ed0 e1bd 0443 eebd a048 bbbd
000000b0: 7ca3 923d 42e4 bcbd 74a8 713d ba48 863d
000000c0: f815 243d 8c09 2abd 90be 393d 64a1 0f3d
000000d0: f0af 02bc 8a4c 963d c817 b93d ec95 71bd
000000e0: 3eac 8c3d 4621 c23d 0c48 5abd 8854 fabc
000000f0: 10f2 69bc 803e 463c 3a01 c13d bcc6 993d
00000100: a23d 913d c2eb 98bd 70f5 b73d 6c5e 57bd
00000110: c077 d63d 38e9 32bd ec38 ba3d dc03 c7bd
00000120: d26c b13d e415 33bd 90a2 353c c028 55bc
00000130: 10e1 9a3c e817 9f3c a428 583d 38e3 d03c
00000140: 24f6 56bd 005a faba 6415 0bbd cce0 64bd
00000150: eca3 26bd d4a2 2ebd c012 20bc 80a4 60bc
00000160: f454 3abd 0c2a 5d3d 4010 27bb 041d c5bd
00000170: 3093 883d e84a cd3d f8ba 1c3d a20d 9bbd
00000180: 8cbf 713d 6cb7 023d 4648 da3d e0f7 b83c
00000190: 9a33 c3bd 525c e3bd d079 debd 546f f1bd
000001a0: 20b0 9d3d e411 403d 24ef 0a3d 342c 543d
000001b0: 009e e23d 38f2 85bc c085 67bc 60d5 573c
000001c0: 0816 4fbd 5c7f 7b3d 28ff 1a3d 3013 1fbd
000001d0: 5064 683d d0e4 7abd 3816 dd3c 002f fdbc
000001e0: 206a ff3d 76d7 903d 4618 90bd f87d 193d
000001f0: 542c 583d 609a 7d3d 8888 6ebd ec95 023d
00000200: 8ca1 293d 064f debd c6fc fc3d f06c 3b3d
00000210: a814 13bd bceb a1bd 9e64 bc3d e4dd 6e3d
00000220: 78fd debc 549a d6bd 0a9c bbbd 3af2 a83d
00000230: c0a6 a63d 181f c1bc 1ea0 e0bd 1efc 893d
00000240: a855 9cbd 60b5 8dbc 1ae4 a4bd 3c3d 663d
00000250: 70f0 46bd 246b d2bd 3255 983d e4ff 0d3d
00000260: 90e1 49bd f8a3 763d 2065 dc3b a038 81bc
00000270: a816 39bd 4cbb ebbd 1427 31bd 54b8 a2bd
00000280: f461 203d 4872 b73c a873 1b3d d0fd f2bc
00000290: 00cb f6bc 8075 6bbd f0dc 7dbd d637 fb3d
000002a0: d8a8 9e3d 2ca4 f13d b80b 29bd a20c b93d
000002b0: 5675 9d3d 402a 633b 24a4 7dbd ec39 893d
000002c0: 9445 bcbd 1646 8d3d 3c83 283d 6875 8fbc
000002d0: 5492 ea3d 0802 bc3c f084 66bd fc00 ba3d
000002e0: a840 aa3c d4c1 d1bd eab8 9cbd 1ac5 9bbd
000002f0: e0f7 973d 58c5 09bd aefb f93d 48e1 f7bd
00000300: 6048 823c 9079 b1bd 7a30 e8bd 9e41 d8bd
00000310: b853 c53d e858 02bd 0aec f23d 90a3 763d
00000320: d891 b83d 7c47 80bd 58e7 08bd a0f1 29bd
00000330: a0bf 0cbc 8c36 963d d8a0 8b3c 4ab6 adbd
00000340: 70ce fcbd bc1d fdbd 3805 293d f819 be3c
00000350: ccec f8bd fa61 ccbd 982f 783d 8cd1 463d
00000360: 0aab abbd b0c3 f4bc 6a47 e1bd 7898 aebd
00000370: 2a35 a3bd 264e fc3d 1007 1f3c e8c5 0ebd
00000380: 98aa c03d c023 383d 8057 b3bc d807 e7bc
00000390: 3aaa c73d 3cde 4a3d b03c 35bc bcf8 2fbd
000003a0: 9405 203d 787b 4dbd 00bc 543a 7e3c 8abd
000003b0: c87f 4d3d c2bc cbbd 144c 9cbd 3008 18bd
000003c0: f698 bebd daa8 933d 94b1 10bd 306b 3abd
000003d0: 9657 93bd 8075 d93a a41d 22bd 7674 fbbd
000003e0: 08f3 f1bc 161d cabd 7425 d2bd 9089 2abd
000003f0: 1a89 b0bd 3055 b23c 4896 89bd b012 c4bd

MLP.4.bias f4 [18]
0.027755454 -0.012185022 -0.012272656 0.11738023 -0.05798152 -0.047378063 -0.092836365 0.06155926
-0.11159323 -0.015213922 0.031065255 0.09532295 0.007947192 0.0556508 0.018601328 0.06853835
0.102639556 0.016412467
00000000: 685f e33c b0a3 47bc 4013 49bc 0c65 f03d
00000010: 087e 6dbd 800f 42bd fe20 bebd 9025 7c3d
00000020: fe8a e4bd d043 79bc 907c fe3c ae38 c33d
00000030: f034 023c 18f2 633d d061 983c d65d 8c3d
00000040: b034 d23d 7073 863c
